weights/battlesnakeWeights.pt (torch_old, 230745 bytes, 13 tensors)

base.base.0.weight f4 [32, 17, 3, 3]
0	0xbe528714	-0.2055934
1	0xbd004b68	-0.031321913
2	0xbcaa8821	-0.020816864
3	0x3d2fcaa9	0.04291788
4	0xbda41fc0	-0.08013868
5	0xbcb01cfe	-0.0214982
6	0x3c2fcf73	0.010730612
7	0xbda9a3a6	-0.082831666
8	0x3c9881d0	0.018616587
9	0x3de0a4ab	0.10968908
10	0x3dab3dea	0.083614185
11	0x3c0cd967	0.008596755
12	0xbde33d96	-0.11095731
13	0xbe95a608	-0.29228234
14	0xbefa4bfb	-0.48886093
15	0x3e5da313	0.21644239
16	0x3eddf69e	0.43352216
17	0xbd81076f	-0.06300246
18	0x3da77f55	0.081785835
19	0xbdce6645	-0.100781
20	0xbec96904	-0.39337933
21	0xbe91250c	-0.28348577
22	0xbf3c4400	-0.7354126
23	0xbf230338	-0.63676786
24	0x3e66ccac	0.22539014
25	0x3e5daa5d	0.2164702
26	0xbe322643	-0.17397408
27	0xbdd0f230	-0.102024436
28	0xbd2a3216	-0.041551672
29	0xbe968cb3	-0.2940422
30	0xbf4b1550	-0.79329395
31	0xbe860a16	-0.2617957
32	0xbd6e3754	-0.058158234
33	0xbe22bd20	-0.15892458
34	0xbdbaef47	-0.0912767
35	0xbf0230a4	-0.5085547
36	0xbe978ac7	-0.29598066
37	0x3d87fa74	0.06639567
38	0x3df038a1	0.11729551
39	0x3db81994	0.08989254
40	0x3eb2c117	0.3491294
41	0x3ef13166	0.47108
42	0xbe401ed0	-0.18761754
43	0xbc7e2c1f	-0.015513449
44	0x3ef38791	0.47564366
45	0xbd2d04ba	-0.042240836
46	0xbd489f2b	-0.04897992
47	0x3e03cbed	0.1287076
48	0xbe436792	-0.19082478
49	0xbd009fba	-0.031402327
50	0x3e502d9b	0.20329897
51	0xbe031dc8	-0.1280433
52	0xbded79a8	-0.1159547
53	0x3e69b3a5	0.22822435
54	0x3d199bb4	0.037502006
55	0x3d880789	0.06642062
56	0x3e8cb52d	0.27481976
57	0x3ea2f595	0.3182799
58	0xbdbfca37	-0.09364741
59	0xbb90c7e1	-0.0044183587
60	0x3e5b68a0	0.2142663
61	0x3d82c687	0.06385522
62	0x3efae402	0.4900208
63	0x3d2f3c83	0.042782318
64	0xbda11b6f	-0.07866561
65	0xbe34a3cf	-0.17640613
66	0xbe2592ed	-0.16169329
67	0xbd3f0881	-0.04663897
68	0xbd626b56	-0.055278145
69	0x3c80ec63	0.015737718
70	0x3c55b071	0.013042555
71	0xbdb6f53b	-0.08933493
72	0xbdc913d7	-0.09818237
73	0xbd2005f8	-0.039068192
74	0x3d873dec	0.066036075
75	0xbf2d3b9f	-0.676691
76	0x3e06a372	0.13148287
77	0xbcb67489	-0.022272365
78	0xbe343ad7	-0.1760057
79	0x3d93febf	0.07226323
80	0xbe9092ba	-0.28236943
81	0x3e2a3f82	0.16625789
82	0xbb89b7a2	-0.004202799
83	0x3e8fc404	0.28079236
84	0xbea8ab53	-0.3294321
85	0xbe460a6b	-0.19339912
86	0x3df34867	0.11879044
87	0xbe094d4d	-0.13408394
88	0x3e15c66a	0.1462647
89	0x3d966a82	0.073445335
90	0xbe4ab797	-0.19796596
91	0xbdc3249d	-0.09528468
92	0x3e3327b7	0.17495619
93	0xbdcdf936	-0.10057299
94	0xbbe87583	-0.0070940866
95	0x3df5c32e	0.12000118
96	0xbe3ec48c	-0.18629664
97	0x3d0fbebc	0.035094008
98	0x3d879be8	0.06621534
99	0xbd50ad9c	-0.050946817
100	0xbe346168	-0.17615283
101	0x3db4ae91	0.088223584
102	0x3d225dbe	0.03964018
103	0x3e2e7423	0.1703649
104	0x3e540ed8	0.20708787
105	0x3e8d9890	0.27655458
106	0x3dbf6a7f	0.093464844
107	0x3d569759	0.05239043
108	0xbe139b8d	-0.14414807
109	0xbccb31fe	-0.024804112
110	0x3e895495	0.26822343
111	0xbd452c78	-0.04813811
112	0xbe95094c	-0.29108655
113	0x3e5613e6	0.20906028
114	0xbdd686eb	-0.10474952
115	0xbe05cdcb	-0.13066785
116	0x3ea26feb	0.31726012
117	0xbc97d60b	-0.01853468
118	0xbe1ef20e	-0.15522024
119	0x3d957b56	0.07298915
120	0x3c3734d5	0.01118203
121	0xbbaf05c4	-0.0053412635
122	0x3d502ace	0.05082207
123	0xbe36a623	-0.17836814
124	0x3d122311	0.035677973
125	0x3dad6a15	0.08467499
126	0xbc989457	-0.018625421
127	0xbdb2a8dc	-0.087236136
128	0x3e0d8435	0.13819964
129	0xbd2f0860	-0.042732596
130	0xbe054f7c	-0.13018602
131	0x3cfc52f3	0.030801272
132	0xbe25cdb5	-0.16191752
133	0xbcbed10c	-0.02329304
134	0x3e7fd8a0	0.2498498
135	0xbdd29f66	-0.10284309
136	0xbc0f118e	-0.008732213
137	0xbe370d6d	-0.17876215
138	0xbcfc50f3	-0.030800318
139	0xbe01852b	-0.12648456
140	0x3d219e9f	0.039457913
141	0xbe36b65c	-0.17843002
142	0x3e0690ce	0.13141176
143	0x3dcb7cc7	0.09935909
144	0xbd817581	-0.0632124
145	0x3dd215ae	0.10258041
146	0xbdc90021	-0.09814478
147	0xbd435a48	-0.04769352
148	0xbd9475b4	-0.072490126
149	0xbd8258b0	-0.06364572
150	0xbe25bac3	-0.16184525
151	0xbdd20339	-0.10254521
152	0x3e34c5ab	0.1765353
153	0x3d557518	0.052113622
154	0x3c961f88	0.018325582
155	0xbd8de8cc	-0.06929168
156	0x3d0a0e8e	0.033705287
157	0xbb574ce8	-0.0032852236
158	0x3b6989d7	0.0035635137
159	0xbdf0a3db	-0.11750003
160	0xbce5af7e	-0.028037783
161	0xbd8d9c39	-0.06914563
162	0xbe927fc6	-0.28613108
163	0x3bf5f8fb	0.0075064874
164	0xbf216db7	-0.63058037
165	0xbc7b3dcb	-0.015334557
166	0x3ed6455b	0.4184979
167	0x3e369ef2	0.1783407
168	0xbdfec64b	-0.12440165
169	0xbd4edaf8	-0.050501794
170	0xbe81056e	-0.25199455
171	0xbebe3923	-0.37152967
172	0xbd91e507	-0.071237616
173	0xbf457c6e	-0.7714299
174	0xbe1d950b	-0.15388887
175	0x3ebd8ad4	0.3701998
176	0xbd229a97	-0.03969821
177	0xbea569a1	-0.3230715
178	0xbe1df902	-0.1542702
179	0xbf53e04c	-0.82764125
180	0xbcf29c14	-0.02961544
181	0x3dfa6f5e	0.12228273
182	0x3e361e9b	0.17785113
183	0x3f3780a8	0.7168069
184	0x3ee07095	0.43835893
185	0x3efe2ef8	0.4964521
186	0x3d15d726	0.036582135
187	0xbe8363f3	-0.25662193
188	0xbe868e16	-0.26280278
189	0x3cd5dd22	0.02610642
190	0xbd2df2fb	-0.042468052
191	0x3ee0a46d	0.43875447
192	0x3d55a56b	0.052159708
193	0x3d944a7c	0.07240769
194	0x3e0b7e07	0.13622294
195	0x3e9c03ca	0.3047164
196	0xbcd3b11c	-0.025841288
197	0x3eccae21	0.399766
198	0xbe8055ae	-0.25065368
199	0xbcf7817a	-0.030213106
200	0x3de72525	0.11286382
201	0x3eab7814	0.3349005
202	0x3e010c66	0.12602386
203	0x3ea8c591	0.3296323
204	0x3d516312	0.05111987
205	0x3d36d102	0.04463292
206	0x3e23526e	0.15949413
207	0x3dbf2548	0.09333283
208	0x3de4c7a7	0.11170893
209	0x3dcd689c	0.10029718
210	0xbef8c21a	-0.48585588
211	0xbe9b1a56	-0.3029353
212	0xbcf07742	-0.029353742
213	0x3d222d73	0.039594125
214	0xbc2c8662	-0.010530086
215	0x3db441cf	0.088016145
216	0xbe380bae	-0.17973205
217	0xbcec73d1	-0.02886382
218	0x3b6816f5	0.0035414074
219	0xbd9b175b	-0.07572814
220	0xbd8bc8f2	-0.06825437
221	0xbb7a87da	-0.0038227946
222	0x3d9c8891	0.076432355
223	0xbd553535	-0.052052695
224	0xbe84d188	-0.2594111
225	0x3e907243	0.28212175
226	0x3dfd99a9	0.12382824
227	0xbe5b73cf	-0.21430896
228	0x3f2604c7	0.6485104
229	0xbe6b0647	-0.22951613
230	0x3d17e569	0.037084017
231	0x3e616cd9	0.22014178
232	0x3c5064a1	0.012719304
233	0x3e9b28ad	0.3030447
234	0xbec72f72	-0.38903385
235	0xbe25a36c	-0.16175622
236	0x3d9e13a4	0.0771859
237	0x3c403fd7	0.011733971
238	0x3e06c706	0.13161859
239	0xbebb1871	-0.36542085
240	0xbd299709	-0.041403804
241	0xbafef63c	-0.0019452046
242	0x3e13b227	0.14423428
243	0x3d035a5c	0.032068595
244	0x3e472817	0.19448887
245	0x3e267d3b	0.16258709
246	0xbbf1e83a	-0.00738242
247	0x3916d70b	0.00014385224
248	0xbb8e38b9	-0.004340258
249	0x3dbbe0c4	0.0917373
250	0xbe5272c3	-0.2055159
251	0x3d091c1a	0.033474065
252	0xbcf9dbad	-0.030500257
253	0x3e52c196	0.2058166
254	0x3e17f369	0.14838947
255	0x3e30bd8c	0.17259806

base.base.0.bias f4 [32]
0	0xbc6732d9	-0.014111244
1	0xbb28c8c7	-0.0025754438
2	0xbd702270	-0.058626592
3	0x3d8590e2	0.06521775
4	0xbe182259	-0.14856853
5	0xbcc7cee9	-0.024390655
6	0xbd006eb2	-0.031355567
7	0xbdd177d6	-0.10227935
8	0x3d06f2ad	0.032946277
9	0x3c59bf86	0.013290292
10	0xbddc64ba	-0.107613996
11	0xbd9d2957	-0.076739006
12	0xbdcf4819	-0.101211734
13	0xbde25c1f	-0.11052727
14	0x3eadc357	0.33938095
15	0xbcc350aa	-0.023842175
16	0xbe07c946	-0.13260373
17	0xbe104696	-0.14089426
18	0xbda8d492	-0.082436696
19	0x3c5a7091	0.013332502
20	0xbc9d0fb9	-0.019172536
21	0xbde1cd44	-0.110254794
22	0xbddad02a	-0.106842354
23	0xbdedba63	-0.11607816
24	0xbdfc57be	-0.12321423
25	0xbd800e5f	-0.06252741
26	0xbc830830	-0.015995115
27	0xbc04732b	-0.008084099
28	0xbd72c8b6	-0.059273444
29	0xbdbec3a7	-0.093146615
30	0xbe355c22	-0.17710927
31	0xbc9a4443	-0.018831378

base.base.2.weight f4 [32, 32, 3, 3]
0	0x3d7cc580	0.06171179
1	0xbe14b84f	-0.14523433
2	0xbe404cab	-0.18779247
3	0x3d2a2d7b	0.04154728
4	0xbb0a27cc	-0.002108085
5	0xbcc3940f	-0.02387431
6	0x3d6061bf	0.054780718
7	0xbd3e63d9	-0.04648194
8	0x3e345d10	0.17613626
9	0xbe1bd48a	-0.15217796
10	0xbdcfbde5	-0.101436414
11	0x3e85866e	0.26079124
12	0x3dff4c70	0.12465751
13	0xbdd17228	-0.10226852
14	0xbe35b2f5	-0.17744048
15	0xbd095803	-0.0335312
16	0x3e07418e	0.13208601
17	0xbdb87613	-0.09006896
18	0xbdc81590	-0.09769738
19	0xbdaf0993	-0.08546748
20	0x3e3fe4a6	0.18739566
21	0x3d0caaf3	0.034342717
22	0x3d9c3d1d	0.07628844
23	0xbd845039	-0.06460614
24	0x3dabc244	0.083866626
25	0xbe285953	-0.16440324
26	0xbd16a84f	-0.036781605
27	0x3d188f4e	0.03724604
28	0xbbd3870d	-0.0064553083
29	0xbd8e74ed	-0.069558956
30	0xbe9d0c67	-0.30673525
31	0x3d28bccc	0.041195676
32	0xbe3948d4	-0.18094188
33	0x3d35ea8b	0.04441313
34	0xbc3e7dd9	-0.011626684
35	0x3ce91158	0.028450653
36	0x3d135b1f	0.03597557
37	0x3ca3e089	0.020004528
38	0xbd8ffa9d	-0.070302226
39	0xbe4f9fb0	-0.2027576
40	0x3d0fef4d	0.035140324
41	0x3d6bf077	0.057602372
42	0xbe5e1170	-0.2168634
43	0x3c86f20e	0.016472843
44	0xbda8f883	-0.08250525
45	0x3cbc861e	0.02301317
46	0xbdcbbcc5	-0.09948114
47	0xbe51f704	-0.20504385
48	0xbda0eef0	-0.07858074
49	0x3de453ba	0.11148782
50	0x3cbfb935	0.023403743
51	0x3dec58a2	0.11540343
52	0x3e19f915	0.15036424
53	0xbe441e32	-0.19152144
54	0xbd148712	-0.036261626
55	0xbd92190a	-0.07133682
56	0xbe1c6b2c	-0.15275258
57	0x3d0d4091	0.034485403
58	0x3d06e5cd	0.032934
59	0x3d4d0fa3	0.05006374
60	0x3be64ca0	0.0070281774
61	0xbd78f24d	-0.06077795
62	0xbce2cf5e	-0.027686771
63	0xbd05eedc	-0.032698497
64	0x3c18622c	0.00930075
65	0x3d3b3928	0.045708805
66	0x3d879313	0.06619849
67	0xbd90b172	-0.07065095
68	0x3daf011e	0.08545135
69	0x3c928d3b	0.01788961
70	0x3d2fe9bc	0.042947516
71	0xbd7b40e6	-0.06134119
72	0x3da71f34	0.081602484
73	0xbd1204b7	-0.035649028
74	0x3e56ef56	0.20989737
75	0x3d13f308	0.036120445
76	0xbd4b3c73	-0.049618196
77	0x3d2df2cd	0.04246788
78	0x3ca0f3e4	0.019647546
79	0x3c4d0dcd	0.012515497
80	0xbd7ca5d7	-0.061681595
81	0xbb36dcde	-0.0027902643
82	0x3c051721	0.00812319
83	0x3daa0c94	0.0830318
84	0xbe44bd02	-0.19212726
85	0x3c921960	0.017834365
86	0x3daa836e	0.083258495
87	0x3dcccce2	0.10000016
88	0xbe225c5a	-0.15855542
89	0xbe056124	-0.13025337
90	0xbe9ed644	-0.31022847
91	0x3cba6adb	0.02275603
92	0x39af0d65	0.0003338858
93	0xbd6cbc33	-0.05779667
94	0x3d3fac6b	0.04679529
95	0xbd06ae1e	-0.032880895
96	0x3e13249e	0.14369437
97	0x3e1b0bcb	0.15141217
98	0x3d416d31	0.047223274
99	0xbd324f91	-0.04353291
100	0x3adeb819	0.0016992121
101	0x3a9612cf	0.0011449697
102	0xbc6b0000	-0.014343262
103	0xbb8c4e2f	-0.004281781
104	0xbbd8b214	-0.0066130254
105	0x3ce3ce73	0.027808404
106	0xbd8cb480	-0.06870365
107	0xbda5f3ce	-0.08103143
108	0xbd25fa84	-0.040522113
109	0xbdf926a2	-0.12165572
110	0x3c83001e	0.015991267
111	0xbcf3f8f0	-0.029781789
112	0x3d1bd575	0.038045365
113	0x3d85468c	0.065075964
114	0xbca2f1e7	-0.019890739
115	0xbd0dca3e	-0.0346167
116	0x3d0df6ad	0.034659076
117	0xbe0aa998	-0.13541257
118	0xbd6fb009	-0.05851749
119	0xbce2a4fd	-0.027666563
120	0x3dc4d7c8	0.096114695
121	0x3da6a377	0.08136647
122	0xbdb3c0b1	-0.08776987
123	0xbda13e40	-0.07873201
124	0x3c197867	0.009367085
125	0x3e412f0e	0.18865606
126	0xbe81dfce	-0.25366062
127	0x3dda30cd	0.10653839
128	0x3de20f65	0.110380925
129	0xbd0812b1	-0.03322095
130	0xbd8d6f00	-0.06905937
131	0xbdc0a40f	-0.09406292
132	0xbdb75cbb	-0.08953234
133	0xbdddc187	-0.10827928
134	0xbb91f97a	-0.0044547888
135	0xbe710c5c	-0.23539871
136	0x3cf63ee3	0.030059284
137	0xbd5f4ec8	-0.05451849
138	0x3d099242	0.033586748
139	0xbe14aee5	-0.14519842
140	0x3e343369	0.17597736
141	0xbc97d371	-0.01853344
142	0xbdc311e3	-0.09524896
143	0xbdc9f15c	-0.09860489
144	0xbe402725	-0.18764932
145	0xbde98f3b	-0.11404272
146	0xbcce491b	-0.025181344
147	0xbe379fc7	-0.17932044
148	0x3c98cabb	0.018651357
149	0xbc9024b0	-0.017595619
150	0x3d82ae91	0.06380952
151	0x3d3fe2ec	0.04684727
152	0x3c8e1df8	0.017348275
153	0x3dfa7a0e	0.12230311
154	0xbdbfbf3d	-0.09362648
155	0x3da23a11	0.079212315
156	0x3d80afe7	0.06283551
157	0xbe05ed51	-0.1307881
158	0xbdddd20f	-0.10831081
159	0xbc8f3749	-0.017482417
160	0xbdd1656a	-0.10224421
161	0xbdf61656	-0.12015979
162	0xbd4f8ae1	-0.050669555
163	0xbdaba7b4	-0.08381596
164	0xbbb4dd07	-0.0055195126
165	0x3d6b452e	0.05743902
166	0xb86806c6	-5.531942e-05
167	0x3d846480	0.06464481
168	0xbdc05d87	-0.09392839
169	0xbcd733e1	-0.026269855
170	0xbd89dbd7	-0.06731384
171	0xbd5dd099	-0.054154012
172	0xbe340407	-0.17579661
173	0xbe819621	-0.25309852
174	0xbd277c74	-0.040890172
175	0x3dda31d5	0.10654036
176	0x3d457884	0.048210636
177	0x3c8b94bc	0.017038696
178	0x3d048e26	0.032362126
179	0xbd0fe7fc	-0.035133347
180	0xbe7d0ade	-0.24711177
181	0x3d9f1da8	0.07769328
182	0xbd94e344	-0.0726991
183	0x3c06546a	0.008198837
184	0xbde9a1ed	-0.11407838
185	0xbde4ab6d	-0.111655094
186	0xbd963fb3	-0.073363684
187	0x3da3e3bc	0.08002421
188	0xbcf291cd	-0.029610539
189	0x3d95a14d	0.07306156
190	0x3df49355	0.11942164
191	0xbcc37705	-0.023860464
192	0xbd5fdc1d	-0.054653276
193	0x3db6c111	0.08923543
194	0x3c3be46d	0.011468035
195	0xbe382749	-0.17983736
196	0xbe1b5343	-0.1516848
197	0xbcda756a	-0.026667316
198	0xbc79ebd7	-0.0152539825
199	0xbd9a4331	-0.07532347
200	0x3dee7307	0.116430335
201	0xbd309ff8	-0.043121308
202	0x3c549b1b	0.012976433
203	0x3d91261b	0.07087346
204	0x3d658737	0.056037154
205	0xbdf9ce1e	-0.12197517
206	0xbd9e27d9	-0.07722444
207	0xb9bcd76c	-0.00036018656
208	0xbdf6def3	-0.12054243
209	0x3abc7f5f	0.0014381221
210	0xbdb993da	-0.090614036
211	0xbe0da257	-0.13831459
212	0x3d4ec5fe	0.05048179
213	0xbcb9b6ac	-0.022670113
214	0x3c443d8d	0.0119775655
215	0xbbd16cd5	-0.0063911476
216	0xbd1fd521	-0.039021615
217	0x3d63d647	0.055624273
218	0x3c9083a7	0.017640902
219	0xbd291208	-0.04127696
220	0x3d1ffefd	0.039061535
221	0xbc8156b0	-0.015788406
222	0xbdc80cd1	-0.097680695
223	0x3d90b9f5	0.070667185
224	0x3c8cc091	0.017181667
225	0xbc25fbcf	-0.010130837
226	0xbcd80dcf	-0.026373772
227	0x3bb07d86	0.0053860573
228	0x3e294188	0.16528904
229	0xbe1a825f	-0.15088795
230	0xbd7d987c	-0.061913
231	0x3e1194ff	0.14216994
232	0x3e11755e	0.14204928
233	0x3e4c41d0	0.1994698
234	0xbe47c0c9	-0.19507135
235	0x3e006383	0.1253796
236	0xbc3a719d	-0.011379627
237	0x3d87d60d	0.06632624
238	0x3da7ba19	0.08189792
239	0xbe1dbb21	-0.15403415
240	0x3dc985ec	0.09839997
241	0xbd8aa125	-0.06769017
242	0x3e10dad1	0.14145972
243	0x3e25e699	0.16201247
244	0xbdb619e3	-0.08891656
245	0xbd4d2844	-0.05008723
246	0xbbdb3358	-0.0066894703
247	0xbd842184	-0.06451705
248	0x3bea3da1	0.00714846
249	0x3da9e059	0.08294744
250	0x3e8e3572	0.2777515
251	0xbd614b48	-0.055003434
252	0xbd57d8d0	-0.052697003
253	0x3d5f50ca	0.054520406
254	0x3d9363dc	0.07196781
255	0xbc17eb23	-0.00927237

base.base.2.bias f4 [32]
0	0xbb44ab07	-0.0030009167
1	0xbdc26a22	-0.094928995
2	0x3e4ed6d5	0.2019914
3	0x3caf0641	0.021365287
4	0xbcb12495	-0.021623889
5	0xbad64511	-0.0016347488
6	0xbc8840e0	-0.016632497
7	0x3dd98998	0.10621947
8	0xbca5e64a	-0.020251412
9	0xbd14cfbd	-0.036330927
10	0x3e8c57d8	0.2741077
11	0x3d025106	0.03181555
12	0x3db2af8e	0.08724891
13	0x3dc63c20	0.09679437
14	0xbdac75c2	-0.08420898
15	0xbd0b2fd4	-0.03398116
16	0x3d583dfa	0.05279348
17	0xbd1c004e	-0.038086228
18	0xbd856d9f	-0.06515049
19	0x3d459411	0.04823691
20	0x3dc01744	0.093794376
21	0x3ca22c3c	0.019796483
22	0x3dba4997	0.090960674
23	0x3e4daa98	0.20084608
24	0xbdc02938	-0.09382862
25	0x3e485a10	0.19565606
26	0xbda04ff5	-0.078277506
27	0xbd34f578	-0.04417941
28	0xbd338cd4	-0.043835476
29	0x3bdc64d3	0.0067258864
30	0x3d3dbe53	0.046324085
31	0xbdb2d972	-0.08732881

base.base.4.weight f4 [32, 32, 3, 3]
0	0x3d182b3c	0.037150607
1	0x3e4ab941	0.19797231
2	0x3e77e56f	0.24208616
3	0xbda9b7d9	-0.08287019
4	0x3da9d563	0.082926534
5	0xbd83b17f	-0.06430339
6	0xbe431d61	-0.19054176
7	0xbe33385f	-0.17501973
8	0xbcebf311	-0.028802427
9	0xbdab1f8e	-0.08355628
10	0x3dc3bd98	0.095576465
11	0xbda14229	-0.07873947
12	0xbd89fe01	-0.067379005
13	0xbdbb1c87	-0.091363005
14	0xbe19904a	-0.14996448
15	0x3d0cf09d	0.034409154
16	0xbe707dde	-0.23485515
17	0xbdc0d616	-0.09415834
18	0xbbd31f58	-0.0064429455
19	0x3ccc71fb	0.024956694
20	0x3e3b09a1	0.18265392
21	0x3bc14f3c	0.005899338
22	0xbd849fa3	-0.06475761
23	0x3dffdb17	0.1249296
24	0xbcb5b16d	-0.02217933
25	0xbd96708f	-0.073456876
26	0xbd43a684	-0.047766224
27	0xbdc3aa46	-0.095539615
28	0xbdc1bafa	-0.09459491
29	0xbdba7836	-0.0910496
30	0x3cb38e98	0.02191858
31	0xbcc190e5	-0.023628661
32	0xbd394c0d	-0.045238543
33	0xbb0cbe32	-0.002147567
34	0xbd860734	-0.06544343
35	0xbda44840	-0.08021593
36	0xbdc34e17	-0.09536379
37	0x3e1d10c1	0.15338422
38	0x3c0e536d	0.008686882
39	0x3e6bb766	0.2301918
40	0x3e10dcb7	0.14146696
41	0xbcc704a3	-0.024294203
42	0xbde2a7db	-0.11067172
43	0x3d15b405	0.036548633
44	0xbe350495	-0.17677529
45	0xbdda3a92	-0.10655703
46	0xbcd49730	-0.025950998
47	0x3e0af002	0.13568118
48	0xbe8fc2ac	-0.2807821
49	0xbe8084f3	-0.25101432
50	0xbd7706f5	-0.06030937
51	0xbd1ab40b	-0.03776936
52	0xbafd87ef	-0.001934288
53	0xbe3413d0	-0.17585683
54	0xbd227f94	-0.03967245
55	0xbc8bb6a6	-0.017054867
56	0x3d7ff931	0.062493507
57	0x3d2d8f34	0.042372897
58	0xbe7c44ed	-0.24635668
59	0x3bc9181b	0.006136907
60	0xbd32d094	-0.043655947
61	0x3e4a3312	0.19746044
62	0x3d91dbd6	0.071220085
63	0x3de64ed1	0.11245502
64	0xbd02344c	-0.031788155
65	0xbdc53df2	-0.09630956
66	0xbd9301ff	-0.07178115
67	0x3dee26b2	0.11628474
68	0xbd83fe4d	-0.064449884
69	0xbd1485c8	-0.036260396
70	0x3dea27ec	0.11433396
71	0x3e0bf058	0.13665903
72	0x3c0edc6c	0.008719545
73	0x3ba09180	0.0049001575
74	0x3de1e2bc	0.11029574
75	0x3b2dea85	0.002653749
76	0xbda9e432	-0.08295478
77	0x3deaedca	0.11471136
78	0x3d394c38	0.045238703
79	0xbe24463c	-0.16042417
80	0xbe6ae6ac	-0.22939557
81	0x3dc6cb2e	0.09706722
82	0xbeba21ab	-0.36353812
83	0xbcd03454	-0.025415577
84	0x3e211831	0.15731885
85	0xbdf87ef0	-0.121335864
86	0xbe3f1a36	-0.18662342
87	0xbe2a5b13	-0.16636305
88	0x3cae0264	0.021241374
89	0x3c8cb164	0.01717443
90	0xbb75d01a	-0.0037508071
91	0x3b1f3c9c	0.00242976
92	0xbe52fb64	-0.2060371
93	0xbe036ee2	-0.12835267
94	0x3d997015	0.07492081
95	0x3cc0e89d	0.023548419
96	0x3deffc94	0.11718097
97	0x3ce14af8	0.027501568
98	0xbd83e241	-0.06439639
99	0xbdf7360c	-0.120708555
100	0x3d5f057b	0.054448586
101	0x3d8902a2	0.06689955
102	0xbdcf41ca	-0.1011997
103	0xba74f5bd	-0.0009344479
104	0xbde3d63c	-0.11124846
105	0xbe0930af	-0.13397478
106	0xbbdfe1c2	-0.0068323324
107	0xbcb89fa3	-0.022537058
108	0xbd866e2d	-0.06563983
109	0xbdb1dc41	-0.08684588
110	0x3d5e5669	0.054281626
111	0x3c76920d	0.01504947
112	0x3c59384b	0.01325805
113	0xbe355a1c	-0.17710155
114	0x3d179e0c	0.03701596
115	0x3d1b1097	0.03785762
116	0xbe4a62fd	-0.19764324
117	0xbda80e85	-0.082058944
118	0x3e123f77	0.14282022
119	0xbd646d20	-0.055768132
120	0xbca72aae	-0.020406093
121	0xbd8383db	-0.06421634
122	0xbd017caf	-0.03161305
123	0x3c270a5a	0.010195339
124	0x3c135294	0.008991856
125	0x3dd91d9b	0.1060135
126	0xbd7749a1	-0.060372952
127	0xbe7e413e	-0.24829575
128	0xbe0f2977	-0.13980661
129	0xbe07aeca	-0.1325027
130	0xbe246e88	-0.1605779
131	0xbe350417	-0.17677341
132	0xbd690256	-0.056886993
133	0x3e3f4517	0.186787
134	0xbc4a411a	-0.012344623
135	0xbd311e15	-0.04324158
136	0xbdfb8e87	-0.12283044
137	0x3d6e7f9a	0.05822716
138	0xbe118be1	-0.14213516
139	0xbcee0c78	-0.02905868
140	0x3d2350bf	0.039871927
141	0xbd1fc8aa	-0.039009728
142	0xbd362dde	-0.044477336
143	0x3e78e8b6	0.24307522
144	0x3cfc1489	0.03077151
145	0x3d6db209	0.058031116
146	0x3c2cdb7b	0.010550375
147	0xbe923a66	-0.2856018
148	0x3ccb6a74	0.024831034
149	0xbe0a1665	-0.13485105
150	0xbd83087b	-0.06398102
151	0xbdd15db9	-0.10222954
152	0xbe77904c	-0.24176139
153	0xbe1dcbfa	-0.15409842
154	0x3cab8423	0.020937031
155	0x3e602b1b	0.21891443
156	0xbdb5dbf4	-0.08879843
157	0xbda7df7b	-0.081969224
158	0xbd0ba63a	-0.034094073
159	0xbddb8a62	-0.10719754
160	0xbdbb00cd	-0.09131012
161	0x3e3b629f	0.1829934
162	0x3d568df5	0.052381475
163	0xbd90a835	-0.07063333
164	0x3d8aa6c7	0.067700915
165	0x3c90f860	0.01769656
166	0xbe54e7a1	-0.20791484
167	0xbdf4b7c1	-0.11949111
168	0xbc8b2bd4	-0.016988672
169	0x3dc4735a	0.09592314
170	0x3db47677	0.08811658
171	0xbc512e1d	-0.012767342
172	0xbd3c9877	-0.04604384
173	0x3d232176	0.039826833
174	0x3d8ebd1a	0.06969662
175	0xbe0cd01a	-0.1375126
176	0xbd81cfd1	-0.06338466
177	0x3e115096	0.14190897
178	0xbe500c38	-0.20317161
179	0xbe31f6b9	-0.17379273
180	0xbc979366	-0.018502902
181	0x3d6d4d82	0.057935245
182	0x3e095b10	0.13413644
183	0xbbb74e26	-0.005594033
184	0xbd8f51bc	-0.069980115
185	0xbd81bd90	-0.06334984
186	0xbdaeb222	-0.0853007
187	0xbd9a007f	-0.07519626
188	0x3c75eb03	0.015009644
189	0xbd357f80	-0.044311047
190	0x3d01844a	0.0316203
191	0x3dd9578f	0.106124036
192	0xbd08e9e0	-0.033426166
193	0xbe2c4fae	-0.1682727
194	0xbe3edd22	-0.18639043
195	0x3d67eb7e	0.056621067
196	0xbe226edd	-0.15862603
197	0xbe37be31	-0.17943646
198	0x3c309d0b	0.010779629
199	0xbe5137c3	-0.20431428
200	0xbab10294	-0.0013504797
201	0x3c9cf656	0.01916043
202	0x3d92e14a	0.07171877
203	0xbe0686dc	-0.13137382
204	0x3c966a3b	0.018361202
205	0xbd8d48ee	-0.06898676
206	0xbe8c551f	-0.27408692
207	0xbdb6c92d	-0.0892509
208	0x3dd8ef3c	0.10592505
209	0x3d6c6221	0.05771077
210	0xba0c9159	-0.00053622347
211	0x3e23b959	0.15988673
212	0xbd550ab3	-0.052012157
213	0x3bc5eb55	0.0060400167
214	0xbca53327	-0.020165993
215	0xbdf6a3a6	-0.12042932
216	0x3d0d2213	0.034456324
217	0x3ca9efb8	0.02074419
218	0x3dffba68	0.12486726
219	0xbd6558ba	-0.05599282
220	0x3b6a9d63	0.0035799376
221	0xbe248ed8	-0.16070116
222	0xbdc03927	-0.09385901
223	0xbe2c6916	-0.16836962
224	0xbbfb6dc6	-0.007672998
225	0xbcb6565f	-0.022257982
226	0xbdda0993	-0.106463574
227	0x3d867ac8	0.065663874
228	0xbd8b349a	-0.06797142
229	0xbe24d370	-0.16096282
230	0x3de8528f	0.11343872
231	0xbdb7fceb	-0.08983787
232	0xbdd13beb	-0.102165066
233	0xbc8a9d28	-0.016920641
234	0x3d8208d2	0.063493386
235	0xbd99571e	-0.074873194
236	0x3e45a73d	0.19302078
237	0xbe13f31e	-0.1444821
238	0xbbce307d	-0.0062924013
239	0x3e218d73	0.15776615
240	0xbcafcf5d	-0.021461183
241	0x3e272513	0.16322736
242	0xbe0796d6	-0.13241133
243	0x3dad2390	0.08454049
244	0xbde3b7ac	-0.11119017
245	0xbd0c827a	-0.03430412
246	0xbd64c16e	-0.05584853
247	0xbc78e162	-0.015190454
248	0xbca046fb	-0.019565096
249	0x3e66030c	0.224621
250	0xbde03ddf	-0.10949301
251	0x3cf3096c	0.029667579
252	0xbd33e7c4	-0.0439222
253	0x3e4d0b5c	0.20023865
254	0xbdf11b73	-0.11772814
255	0x3e039eec	0.12853593

base.base.4.bias f4 [32]
0	0xbd2a3621	-0.041555528
1	0xbd854b5a	-0.06508513
2	0xbddaa521	-0.10676027
3	0xbdcbb233	-0.09946098
4	0xbd27d0e9	-0.040970717
5	0x39e7777e	0.00044148782
6	0xbdf415aa	-0.119181946
7	0xbdab83c2	-0.0837474
8	0xbc7d376c	-0.015455108
9	0xbdd88068	-0.105713665
10	0xbcf04aac	-0.029332481
11	0xbe2b38e9	-0.16720928
12	0xbdc0ad60	-0.09408069
13	0xbdfcb399	-0.12338943
14	0xbdeef7d2	-0.11668362
15	0xbd9b0161	-0.075686224
16	0xbc3cd9f6	-0.011526575
17	0xbe1b61d8	-0.15174043
18	0xbd749632	-0.05971355
19	0xbe01f48f	-0.12690948
20	0xbd99ea83	-0.07515433
21	0xbe01052c	-0.12599629
22	0xbdc36f6d	-0.09542737
23	0xbd471025	-0.04859938
24	0xbe19e52d	-0.1502883
25	0xbdd325cb	-0.10309943
26	0xbd241dd7	-0.04006752
27	0xbd697aed	-0.057001997
28	0xbd901ead	-0.07037101
29	0xbd4a33dc	-0.049365863
30	0x3d37f376	0.044909917
31	0xbd360814	-0.044441298

base.fc1.weight f4 [128, 128]
0	0x3e66dbac	0.22544736
1	0xbe05fea8	-0.13085425
2	0xbd522afa	-0.051310517
3	0x3dde9c49	0.10869653
4	0xbe85193f	-0.25995824
5	0x3dd4a877	0.103836946
6	0xbe1d040a	-0.15333572
7	0x3de5653c	0.112009495
8	0xbd99d929	-0.07512123
9	0xbdb713b0	-0.08939302
10	0x3e207170	0.15668273
11	0x3e804095	0.25049272
12	0x3d1e846b	0.038700502
13	0x3df53355	0.119726814
14	0xb9f5d979	-0.0004689207
15	0xbd10535a	-0.03523574
16	0xbe36d50a	-0.17854705
17	0x3d897692	0.067120686
18	0x3d82c928	0.06386024
19	0x3bbbc81c	0.005730642
20	0x3d780862	0.06055487
21	0x3de0235d	0.10944245
22	0x3dd3ae36	0.103359625
23	0xbdc0417e	-0.09387492
24	0x3dfdf5e2	0.12400414
25	0xbdd28c13	-0.10280623
26	0xbde7c490	-0.11316788
27	0xbd1868e1	-0.037209395
28	0x3d7a8d1e	0.061169736
29	0xbe5a44d6	-0.21315321
30	0xbcc83f8d	-0.024444366
31	0x3d4f92e5	0.0506772
32	0x3ed2ff44	0.41210377
33	0x3e6708fe	0.22562024
34	0x3d948250	0.07251418
35	0xbe54cd73	-0.20781498
36	0x3bd5d361	0.0065254425
37	0x3d600dd2	0.05470068
38	0x3e219b6d	0.15781946
39	0x3e480b56	0.19535574
40	0xbb6fe4bc	-0.0036604842
41	0xbe00df18	-0.12585104
42	0xbd735c9c	-0.05941449
43	0x3e458462	0.19288781
44	0x3bd0aa5d	0.006367965
45	0xbd81c36a	-0.063361004
46	0x3d7112a1	0.058855657
47	0xbc10bcf4	-0.008834112
48	0xbbf7662f	-0.007550023
49	0x3e7704d2	0.24122933
50	0xbda7769c	-0.0817692
51	0x3e0e0cae	0.13872024
52	0x3c5d8ed8	0.013522826
53	0x3da69366	0.08133583
54	0xbde22d43	-0.11043789
55	0xbd5aa03f	-0.05337548
56	0x3dda53da	0.10660525
57	0x3c9fa795	0.019489089
58	0x3d606cf1	0.054791395
59	0x3e2e1d9d	0.17003484
60	0x3db26e65	0.08712462
61	0x3db03c23	0.0860522
62	0xbdb73faf	-0.089476936
63	0xbd76c925	-0.06025042
64	0x3e146b46	0.14494047
65	0xbdaf956a	-0.0857342
66	0x3d82af38	0.063810766
67	0x3da06c8c	0.07833204
68	0xbdc6d427	-0.097084336
69	0xbe8ff1ae	-0.28114074
70	0x3def18d2	0.11674656
71	0x3e3e6ad3	0.18595438
72	0xbe37b5ee	-0.17940494
73	0xbd8b0137	-0.06787341
74	0x3bfb776d	0.007674149
75	0xbe2462d1	-0.1605332
76	0xbd68fd7c	-0.056882367
77	0x3dd7ddb8	0.10540336
78	0x3d39d392	0.045367785
79	0xbdba5b30	-0.09099424
80	0x3dc04293	0.09387698
81	0xbd0a46ce	-0.03375893
82	0x3eb3c2a6	0.35109442
83	0xbdbe7a94	-0.09300724
84	0xbe64170c	-0.22274417
85	0xbe0a7972	-0.1352289
86	0x3ad46061	0.001620304
87	0x3e59c20a	0.21265426
88	0xbe2e7644	-0.17037302
89	0x3d200286	0.039064907
90	0xbe3604d9	-0.17775287
91	0x3e2b0873	0.16702442
92	0x3ca7243a	0.020403016
93	0xbca11585	-0.019663582
94	0xbd6f926e	-0.058489256
95	0x3e48e8f6	0.19620118
96	0xbcf2f35a	-0.029657055
97	0xbce34fc3	-0.027747994
98	0xbd866e0d	-0.06563959
99	0x3d508dbd	0.050916422
100	0xbd0f5ede	-0.03500258
101	0xbe6c5959	-0.23080958
102	0x3e63de5c	0.22252792
103	0x3e0b6e6d	0.13616343
104	0xbc276df4	-0.010219086
105	0xbd51cf68	-0.05122319
106	0xbd829d6f	-0.06377684
107	0x3b0f7d58	0.002189478
108	0x3e1ea34e	0.15491983
109	0x3e05cf42	0.13067344
110	0x3cd442e0	0.025910795
111	0xbd3262d2	-0.043551274
112	0x3e0c47e2	0.13699296
113	0x3d07000c	0.03295903
114	0x3d1dee14	0.038557127
115	0x3ea5a401	0.32351688
116	0x3e30d9d6	0.17270598
117	0x3e0e9ad1	0.13926245
118	0x3e1696c3	0.14705949
119	0xbe0d88c9	-0.1382171
120	0x3e35589d	0.17709585
121	0x3e631cd5	0.22178967
122	0xbe5204dc	-0.20509666
123	0xbea3bdfe	-0.3198089
124	0xbe3e3c43	-0.18577676
125	0x3ded8bf1	0.11598957
126	0xbde83521	-0.113382585
127	0x3e9a3a0b	0.30122408
128	0x3e15cafa	0.1462821
129	0xbe2d69b1	-0.1693485
130	0x3c965bac	0.01835426
131	0xbe24cf8a	-0.16094795
132	0xbcc569c0	-0.024098277
133	0xbc8cea3d	-0.017201537
134	0xbc60e66e	-0.013726814
135	0xbc902f8d	-0.017600799
136	0x3d9f4838	0.077774465
137	0xbd1ffc4c	-0.03905897
138	0x3ca6e92f	0.020374862
139	0x3e100cb3	0.14067344
140	0x3dbff726	0.09373312
141	0xbd5ba633	-0.053625297
142	0x3da0e804	0.078567535
143	0xbe4f941e	-0.20271346
144	0xbd814ac4	-0.063130885
145	0x3e81954a	0.2530921
146	0xbe7031d8	-0.23456514
147	0xbdf7e808	-0.12104803
148	0xbce1464e	-0.027499344
149	0xbe30cf66	-0.17266616
150	0xbd0ffc31	-0.035152618
151	0xbe890d01	-0.26767734
152	0xbd6a84f2	-0.057255693
153	0xbd9fddb1	-0.07805956
154	0x3e159ac0	0.14609814
155	0xbe80d4f6	-0.25162476
156	0xbd8f76ed	-0.07005105
157	0xbd723659	-0.05913386
158	0xbd014646	-0.03156116
159	0xbe2687a2	-0.16262677
160	0x3e671f89	0.22570623
161	0xbc708fb5	-0.0146827
162	0x3deabf1c	0.114622325
163	0xb97146bf	-0.00023009906
164	0xbcfaa4bb	-0.030596128
165	0xbcf7eba1	-0.030263724
166	0xbe510f8f	-0.20416091
167	0xbe0c3c1a	-0.13694802
168	0x3e236d94	0.1595977
169	0xbe4fa497	-0.2027763
170	0xbc1d790c	-0.009611379
171	0xbd93ed17	-0.07222956
172	0x3c50541c	0.012715366
173	0xbe0d5e8d	-0.138056
174	0xbd2141f3	-0.039369535
175	0xbd334898	-0.043770403
176	0x3e2eed95	0.17082818
177	0x3eb5516e	0.35413688
178	0x3e2022f5	0.15638335
179	0x3e0dda68	0.13852847
180	0xbe8e93ae	-0.27847046
181	0x3d69b22e	0.05705469
182	0x3dbab14f	0.0911585
183	0x3dad0b8c	0.08449468
184	0x3e42d1a1	0.1902528
185	0xbdc495b7	-0.09598868
186	0xbe0afa2c	-0.13571995
187	0xbe489ab2	-0.19590262
188	0xbea1e407	-0.31619284
189	0xbc710ad3	-0.014712053
190	0xbe2d5c5c	-0.16929764
191	0x3d355841	0.04427362
192	0xbe00252c	-0.1251418
193	0xbcf7aec1	-0.030234696
194	0xbea9862e	-0.33110183
195	0xbe5e41b4	-0.21704751
196	0x3c9523f6	0.018205624
197	0x3db36161	0.08758808
198	0x3df653f7	0.12027734
199	0x3e0d54f1	0.13801934
200	0xbd6663cd	-0.05624752
201	0xbdab6189	-0.08368213
202	0xbdb32a67	-0.08748322
203	0xbd63d2cb	-0.05562095
204	0xbe5a81c8	-0.2133857
205	0x3e3f0a1a	0.18656197
206	0xbdb0e758	-0.08637875
207	0xbd8bb26d	-0.068211414
208	0xbe5fa4bd	-0.21840186
209	0xbb91c96d	-0.0044490607
210	0x3e3eeea1	0.18645717
211	0xbe99529f	-0.29945847
212	0xbca37cc2	-0.01995695
213	0xbcf9134c	-0.03040471
214	0x3e2e0f92	0.16998127
215	0xbdea48fe	-0.114397034
216	0xbe45db14	-0.19321853
217	0xbc832c23	-0.016012257
218	0xbd8dbd34	-0.06920853
219	0xbd2b01c2	-0.041749723
220	0x3db54eee	0.08852945
221	0x3dfeb54a	0.12436922
222	0xbe12895c	-0.14310211
223	0x3dc26268	0.09491426
224	0xbe341d15	-0.17589219
225	0xbbcb18a7	-0.006198007
226	0xbe805415	-0.2506415
227	0xbdc9f807	-0.098617606
228	0xbe80371c	-0.25042045
229	0x3d25bee7	0.04046526
230	0x3e9bc319	0.30422285
231	0xbdaa731f	-0.08322739
232	0xbd3ac36a	-0.045596518
233	0x3dfae05e	0.12249826
234	0xbdb37dd7	-0.087642364
235	0x3dc37dc2	0.09545471
236	0xbdd8aa4b	-0.10579356
237	0x3eb7a203	0.35865793
238	0xbe694a22	-0.22782186
239	0xbd8ea97b	-0.069659196
240	0xbd99e707	-0.07514768
241	0xbd380390	-0.044925272
242	0x3c9981ae	0.018738594
243	0xbd8826f2	-0.06648053
244	0x3de61a95	0.11235539
245	0xbd9f3fdf	-0.07775854
246	0xbe0b1952	-0.13583878
247	0xbd879637	-0.06620448
248	0x3e276447	0.16346847
249	0x3c7c6236	0.015404275
250	0xbe5bf324	-0.2147947
251	0xbd2e7ba6	-0.04259839
252	0xbbb7d3c1	-0.00560996
253	0xbe8d9a60	-0.2765684
254	0x3d219746	0.039450906
255	0xbe574e66	-0.21026

base.fc1.bias f4 [128]
0	0xbbecc364	-0.007225441
1	0xbdaf413c	-0.08557364
2	0xbd2b6909	-0.041848216
3	0x3def83f9	0.11695094
4	0xbe275bc9	-0.16343607
5	0xbc842939	-0.016132938
6	0xbdd66b4e	-0.104696855
7	0x3d8d2301	0.06891442
8	0x3bb84ad5	0.005624155
9	0x3e0cc667	0.1374756
10	0xbdd78411	-0.105232365
11	0xbe29fa40	-0.16599369
12	0xbc063e50	-0.008193567
13	0xbd9f42fa	-0.07776447
14	0x3cdc9459	0.026926206
15	0xbdcefaee	-0.10106455
16	0x3e1e6eb2	0.15471914
17	0x3b3b4004	0.0028572092
18	0xbad6aab4	-0.0016377778
19	0x3d560bd3	0.05225737
20	0x3d949894	0.072556645
21	0xba6e65ff	-0.0009094178
22	0xbb7820d8	-0.0037861373
23	0xbc839184	-0.016060598
24	0x3d1b192e	0.03786581
25	0xbcbd694b	-0.023121497
26	0xbb0bd7ce	-0.0021338346
27	0xbe02458d	-0.12721844
28	0xbd719917	-0.05898389
29	0x3d081ba4	0.033229485
30	0x3e16f9c9	0.14743723
31	0xbd14da86	-0.036341213
32	0xbc9ef99d	-0.019406134
33	0x3e04dfd6	0.12976012
34	0x3df39363	0.11893346
35	0xbdf6acd9	-0.12044687
36	0x3c0e650e	0.0086910855
37	0xbda433a2	-0.08017661
38	0xbe187141	-0.14886953
39	0x3db3e007	0.08782964
40	0x3e0415c7	0.12898932
41	0x3d03c85c	0.0321735
42	0x3ad74058	0.0016422374
43	0xbc4d8d75	-0.012545933
44	0xbcefe536	-0.029284101
45	0x3d06145d	0.032734264
46	0x3d29096e	0.04126876
47	0xbd7e4755	-0.062079746
48	0xbdaadfb1	-0.08343447
49	0xbc3f173c	-0.011663254
50	0xbe3ffd67	-0.18749009
51	0xbdb77786	-0.08958344
52	0xbc23f76d	-0.010007721
53	0xbd94f681	-0.072735794
54	0xbdc80c2d	-0.09767947
55	0xbc209fa3	-0.009803685
56	0xbdadf7bd	-0.08494518
57	0xbdb15bc1	-0.08660079
58	0x3e2b011f	0.16699646
59	0xbdbbe5ef	-0.09174716
60	0x3cfc8c91	0.030828746
61	0xbc2c579f	-0.010518937
62	0x3d8aeb87	0.067832045
63	0x39129687	0.00013979721
64	0x3d0d5192	0.03450162
65	0xbc6ae04f	-0.014335706
66	0x3e4d1d97	0.20030819
67	0xbe4141e3	-0.1887279
68	0xbb87d6f9	-0.0041455
69	0xbd0953dc	-0.03352724
70	0x3e1c1c80	0.15245247
71	0xbcbba76b	-0.02290698
72	0xbb9bb3d9	-0.004751664
73	0x3e6ee4f6	0.23329529
74	0xbe11f5cc	-0.1425392
75	0xbba1fa82	-0.004943193
76	0xbdd471d3	-0.10373273
77	0xbc9beb53	-0.01903311
78	0x3e3b455e	0.1828818
79	0x3dadfa2a	0.08494981
80	0x3d1e7f30	0.038695514
81	0x3a002f1f	0.0004889834
82	0x3bd011bc	0.0063497704
83	0x3e5f3986	0.21799287
84	0xbc8eb40b	-0.017419836
85	0x3cee8f49	0.029121058
86	0xbde82697	-0.113354854
87	0xbe2b8ed4	-0.16753703
88	0x3de4a112	0.11163534
89	0xbe78d9f0	-0.24301887
90	0x3cfb001f	0.030639706
91	0x3d698e31	0.05702037
92	0x3bc699af	0.006060801
93	0xbe0b3ae1	-0.1359668
94	0xbd596f54	-0.053084686
95	0xbe0ba792	-0.13638142
96	0x3e346245	0.17615612
97	0xbd8c8a06	-0.068622634
98	0x3e3aff6d	0.182615
99	0xbcd03290	-0.025414735
100	0xbe050576	-0.12990364
101	0xbdf83fa0	-0.121215105
102	0xbd8c5181	-0.06851483
103	0xbceeb3a2	-0.02913839
104	0x3d5b008c	0.05346732
105	0xbdf7df71	-0.12103165
106	0x3c6347ac	0.013872068
107	0xbdf9f9d7	-0.12205856
108	0xbcbe2291	-0.023209842
109	0xbd1599a5	-0.03652348
110	0xbe0a0b0d	-0.13480778
111	0xbd2fa8d8	-0.04288563
112	0x3d976570	0.073923945
113	0xbc854f92	-0.016273294
114	0xbd2754e8	-0.040852457
115	0x3d60beff	0.054869648
116	0xbcb9dcee	-0.022688355
117	0x3c84f75d	0.016231233
118	0xbd9c4d53	-0.07631936
119	0x3dc30881	0.09523106
120	0x3ca74a10	0.020421058
121	0xbd2af52e	-0.041737728
122	0xbd43a60c	-0.047765777
123	0x3d0fddc2	0.035123594
124	0x3d2c4189	0.042054687
125	0xbd95774e	-0.07298146
126	0xbc67fd14	-0.01415946
127	0x3df581a0	0.11987615

base.value_head.weight f4 [1, 128]
0	0x3cca0676	0.024661284
1	0x3d5cf08e	0.05394035
2	0x3cd2374d	0.025661135
3	0xbe46af27	-0.19402753
4	0x3d89f022	0.06735255
5	0xbcfe41db	-0.031037262
6	0x3ddb878d	0.10719214
7	0xbd866668	-0.06562501
8	0x3b43cb1b	0.00298757
9	0xbe8177ce	-0.25286716
10	0x3db1dcfd	0.08684728
11	0x3dacb566	0.084330365
12	0xbbced439	-0.00631192
13	0x3d09506f	0.033523973
14	0xbd3714fb	-0.044697743
15	0x3d21aafa	0.039469697
16	0xbe3aa00e	-0.18225119
17	0x3bf73148	0.0075437166
18	0x3c4c57ac	0.0124720745
19	0xbc67359b	-0.014111902
20	0xbd44ecb6	-0.048077308
21	0x3b0a5b8b	0.0021111693
22	0xbe204efa	-0.15655127
23	0xbd115902	-0.035485275
24	0xbd592b1c	-0.053019628
25	0xbccf7fbb	-0.025329461
26	0xbcf43dc4	-0.029814608
27	0x3d8f7a7a	0.070057824
28	0x3cb4c868	0.022068217
29	0xbd148280	-0.036257267
30	0xbd873682	-0.066021934
31	0x3b827270	0.003980927
32	0x3c0a5708	0.008443601
33	0xbe572536	-0.21010289
34	0xbe2c157b	-0.16805069
35	0x3bf34388	0.007423822
36	0xbcb36692	-0.021899495
37	0x3d62fd42	0.055417307
38	0x3e216195	0.15759881
39	0xbc8f70d8	-0.017509863
40	0xbe215079	-0.15753354
41	0xbb990c88	-0.0046706833
42	0x3b43f8c1	0.0029902908
43	0xbc01d6cd	-0.007924748
44	0xbc47f5b0	-0.012204573
45	0x39fda14a	0.0004837609
46	0xbcd3a6e7	-0.025836421
47	0x3cafefb7	0.02147661
48	0x3d745c5b	0.05965839
49	0x3b5e9de8	0.0033968631
50	0x3db6fb06	0.08934598
51	0x3d467a15	0.04845627
52	0xbe86a8d8	-0.26300693
53	0xb90a529d	-0.00013191481
54	0x3dad51b3	0.084628485
55	0xbd02e87b	-0.031959992
56	0x3d6b266d	0.057409693
57	0x3cf5cd35	0.030005077
58	0xbdb3c74b	-0.087782465
59	0x3d335399	0.043780897
60	0xbdaddba6	-0.0848916
61	0xbcc6d920	-0.024273455
62	0xbdf3e710	-0.11909306
63	0xbc1ff42e	-0.009762807
64	0xbcd81279	-0.026375996
65	0xbc79d588	-0.015248664
66	0xbdd4df2e	-0.10394131
67	0x3e4ea31a	0.20179406
68	0xbc5b0e0f	-0.013370051
69	0x3d0ab316	0.033862196
70	0xbd897c6e	-0.06713186
71	0xbcf6e27c	-0.030137293
72	0xbcd996f5	-0.02656124
73	0xbcf942ae	-0.030427303
74	0x3e249ec6	0.16076192
75	0x3a53ab2d	0.00080745184
76	0x3d6e0d30	0.058118045
77	0x38e0c4f3	0.00010717837
78	0xbdbb7471	-0.09153069
79	0xbcd646cb	-0.026156804
80	0xbde88305	-0.11353115
81	0xbbf00604	-0.007324936
82	0xbd228d32	-0.039685436
83	0xbec50445	-0.3847982
84	0x3cb2749e	0.021784123
85	0xbd6f3367	-0.05839863
86	0x3d90bf62	0.070677534
87	0x3e4752f5	0.1946524
88	0xbce620d0	-0.028091818
89	0x3ea68737	0.32525036
90	0xbd918133	-0.07104721
91	0xbd873234	-0.06601372
92	0x3ba6c90c	0.0050898846
93	0x3d97e997	0.074176006
94	0x3d0a26d6	0.033728443
95	0x3dd58761	0.10426212
96	0xbe9bf735	-0.30462041
97	0x3c1c73c6	0.009549087
98	0xbea331f8	-0.3187406
99	0x3c757825	0.014982258
100	0x3da0db9e	0.07854389
101	0x3da32a5e	0.07967065
102	0x3c9ae59d	0.018908316
103	0xbaf8a31a	-0.0018969506
104	0xbd84e5a1	-0.06489111
105	0x3dd56c25	0.104210176
106	0xbba058d8	-0.0048934035
107	0x3e0b6a36	0.13614735
108	0xbbd7d40c	-0.0065865573
109	0x3c3051a9	0.010761657
110	0x3d3e6d82	0.046491154
111	0x3ae756ca	0.0017649767
112	0xbdec26ab	-0.11530813
113	0xbc41b191	-0.01182212
114	0x3b8abad7	0.004233699
115	0xbdcb4cf6	-0.099267885
116	0xbb1718a1	-0.0023055451
117	0xbcd0dce9	-0.025495963
118	0x3d606d42	0.054791696
119	0xbc1c0ef4	-0.0095250495
120	0xbbf83db6	-0.007575716
121	0x3c8f18d8	0.017467901
122	0x3bf6a510	0.007527001
123	0xbd82ade1	-0.06380821
124	0xbbe93aef	-0.007117621
125	0x3d409005	0.047012348
126	0x3c4c77e7	0.012479759
127	0xbd649753	-0.055808377

base.policy_head.weight f4 [128, 128]
0	0xbda03c2f	-0.07823979
1	0xbcab88c8	-0.020939246
2	0xbe0ebcc3	-0.13939194
3	0xbca5c084	-0.0202334
4	0xbc1f35de	-0.009717433
5	0x3d492a04	0.049112335
6	0xbd014d9b	-0.03156815
7	0x3b1897be	0.0023283805
8	0xbdfa9f2c	-0.12237391
9	0xbb9cd5e8	-0.004786242
10	0xbe0dfad5	-0.13865216
11	0xbe1af511	-0.15132548
12	0x3d9005bb	0.07032343
13	0x3db60029	0.08886749
14	0xbdecd9fd	-0.115650155
15	0xbd571cce	-0.052517705
16	0x3e867d0f	0.26267287
17	0x3cb4fcc0	0.022093177
18	0x3e285d35	0.16441806
19	0x3c2fa259	0.010719859
20	0xbe309516	-0.17244372
21	0x3dfa1b51	0.122122414
22	0x3d2cba75	0.042170007
23	0x3d3762f3	0.0447721
24	0xbca247e4	-0.01980967
25	0xbd602656	-0.05472406
26	0xbb2e0428	-0.002655277
27	0x3d35e0f1	0.044403974
28	0xbd6cc539	-0.057805274
29	0x3d725d88	0.05917123
30	0x3e70ff43	0.23534875
31	0xbe84a7f5	-0.2590939
32	0xbe30f573	-0.17281131
33	0x3c5bd9cf	0.013418629
34	0xbe0f8298	-0.14014661
35	0x3e04b4db	0.12959616
36	0x3d4ad457	0.04951891
37	0x3e573c6d	0.21019144
38	0x3dd0b188	0.101901114
39	0x3e0d372f	0.13790582
40	0x3e2791e7	0.16364251
41	0xbd9e913b	-0.07742544
42	0xbd9c6ae8	-0.07637578
43	0x3cdaa76d	0.026691163
44	0x3d5e26fb	0.054236393
45	0x3e59d2d3	0.2127183
46	0x3a71273d	0.00091992674
47	0xbc2604c4	-0.010132972
48	0x3cdc9dbc	0.026930682
49	0xbc4e425a	-0.012589062
50	0xbd72c0c7	-0.059265878
51	0x3e529b76	0.20567116
52	0xbd069936	-0.032860957
53	0xbd897610	-0.06711972
54	0xbe8015fc	-0.25016773
55	0x3c355e29	0.011069813
56	0x3d03658b	0.03207926
57	0x3d48e2c9	0.049044404
58	0xbda7ee10	-0.08199704
59	0xbcc64dd5	-0.024207035
60	0x3d48f447	0.049061086
61	0xbc84901a	-0.016181994
62	0xbe040f15	-0.12896378
63	0xbd7b8b40	-0.061412096
64	0x3d03d8e3	0.03218926
65	0x3d069f41	0.03286672
66	0x3e74f2f2	0.23920801
67	0x3d849f80	0.06475735
68	0xbc911200	-0.017708778
69	0xbd82407d	-0.063599564
70	0xbd4c4cd0	-0.04987794
71	0xbe048dd0	-0.12944722
72	0x3e09048f	0.13380645
73	0xb998daf7	-0.0002915484
74	0x3ca5a979	0.020222412
75	0xbdd21738	-0.10258335
76	0xbe6314c2	-0.22175887
77	0x3e1c765d	0.15279527
78	0x3e0ff7de	0.14059398
79	0x3d750867	0.059822466
80	0xbd9b88a7	-0.07594424
81	0x3e06d32f	0.13166498
82	0x3dd14990	0.10219109
83	0xbbed8a14	-0.007249126
84	0x3e5e19ca	0.21689525
85	0xbd6195ee	-0.055074625
86	0xbe6f0046	-0.23339948
87	0x3e252c6d	0.16130228
88	0xbe1b004e	-0.15136835
89	0xbcdfaac0	-0.0273031
90	0x3d14b85c	0.03630863
91	0x3d9b057f	0.07569408
92	0x3d1aeab7	0.037821498
93	0x3c092726	0.00837115
94	0x3d234443	0.03986002
95	0xbcc0f3f0	-0.023553818
96	0xbe014576	-0.12624153
97	0xbde20c70	-0.110375285
98	0xbe4f9bcb	-0.20274274
99	0xbe3f548e	-0.18684599
100	0x3e2d952c	0.16951436
101	0xbd7f83fb	-0.062381726
102	0xbd691007	-0.05690005
103	0xbd56dea0	-0.052458405
104	0x3d902ab4	0.07039395
105	0xbd01cc2a	-0.031688847
106	0x3e1511e0	0.145576
107	0x3d20ba93	0.03924043
108	0xbd175283	-0.036943924
109	0xbc7214c3	-0.014775458
110	0xbd4510bf	-0.048111673
111	0xbe134f72	-0.14385775
112	0xbd8b0fbb	-0.0679011
113	0x3d932d87	0.07186418
114	0xbdbeec47	-0.0932241
115	0x3d931344	0.07181409
116	0x3dd78465	0.10523299
117	0xbe6b695f	-0.22989415
118	0x3e50ec9c	0.2040276
119	0xbd36dff1	-0.04464716
120	0xbd721b34	-0.059107974
121	0xbcff03ac	-0.03112968
122	0x3ce10e52	0.027472649
123	0xbd5ea635	-0.054357726
124	0xbd209330	-0.03920287
125	0x3e4ffb45	0.20310695
126	0xbe2c1cbd	-0.16807838
127	0xbdd37d01	-0.10326577
128	0x3d3d6bd8	0.046245426
129	0x3e1e718c	0.15473002
130	0xbde1e7a7	-0.11030512
131	0xbd15a0ea	-0.036530413
132	0x3e4320aa	0.19055429
133	0x3cfe6178	0.031052336
134	0x3e0cee65	0.13762815
135	0x3e31ca50	0.17362332
136	0x3e38eb97	0.1805862
137	0xbdf8a646	-0.12141089
138	0xbe32401f	-0.17407273
139	0x3ddaafcb	0.10678061
140	0xbed69b6f	-0.4191546
141	0x3d846b79	0.06465811
142	0xbe1db92c	-0.15402669
143	0xbe04c350	-0.12965131
144	0xbe166546	-0.1468707
145	0xbcf72361	-0.030168237
146	0xbd8664bb	-0.065621816
147	0x3e3299b3	0.17441444
148	0x3e5ba5d3	0.21449976
149	0x3dbf5a0f	0.09343349
150	0x3d267e2b	0.040647667
151	0x3dd9dc5e	0.10637735
152	0x3cc3cd2b	0.023901543
153	0x3d6fab1b	0.05851279
154	0x3e19e696	0.15029368
155	0x3c59323e	0.013256608
156	0x3e49abfc	0.19694513
157	0xbd7e0fb4	-0.062026694
158	0xbd6b4df7	-0.0574474
159	0xbe19d26e	-0.15021679
160	0xbe4edba4	-0.20200974
161	0xbdcefcb3	-0.10106792
162	0xbd425da8	-0.0474526
163	0xbe1ccf2c	-0.15313405
164	0x3e12effd	0.14349361
165	0xbe0c4aa0	-0.13700342
166	0x3d532378	0.051547498
167	0xbd41a257	-0.04727396
168	0x3b194cca	0.0023391717
169	0x3df237ec	0.118270725
170	0x3db1a260	0.08673549
171	0x3d83c47d	0.064339615
172	0xbe3f7511	-0.18697001
173	0xbd7eb1f8	-0.062181443
174	0xbe5ef5b9	-0.21773423
175	0x3db26cee	0.08712183
176	0xbea03595	-0.3129088
177	0xbda277dc	-0.079330176
178	0xbdccc144	-0.099978
179	0x3e0cc0c8	0.13745415
180	0x3e0ca32b	0.13734119
181	0xbe0671d6	-0.13129362
182	0x3d692dec	0.05692856
183	0x3dc5fd9d	0.096675135
184	0x3e041cd5	0.12901624
185	0xbdfeacdb	-0.12435313
186	0x3e349a57	0.17637001
187	0x3e09997d	0.13437457
188	0xbcb4feb4	-0.022094108
189	0xbda7044a	-0.08155115
190	0xbe14dbac	-0.14536923
191	0xbe104db4	-0.14092141
192	0x3d0209fb	0.0317478
193	0x3dda6f5a	0.1066577
194	0xbce0b814	-0.027431525
195	0x3d8ca92b	0.06868204
196	0xbc540d25	-0.012942587
197	0x3e51ea4c	0.20499533
198	0xbd2b7685	-0.041861076
199	0x3d2dd5b6	0.04244014
200	0x3de093b5	0.10965673
201	0xbd89a850	-0.06721556
202	0x3c65b939	0.014021211
203	0x3e904a17	0.28181526
204	0xbe1b58be	-0.15170571
205	0x3d22cb29	0.03974453
206	0x3bdd625b	0.0067561097
207	0x3e100e1b	0.14067881
208	0x3e1036bd	0.14083381
209	0xbe3c93de	-0.18415782
210	0x3cee1a1d	0.029065186
211	0xbdb1ea87	-0.08687311
212	0xbe5e84c8	-0.2173034
213	0xbdc2668c	-0.094922155
214	0xbdc0e90a	-0.09419449
215	0xbd7cd23a	-0.061723925
216	0x3d80f8a1	0.06297422
217	0x3e6f8a14	0.23392516
218	0x3e8b1d4f	0.27170798
219	0x3e472df1	0.19451119
220	0xbccc4701	-0.024936201
221	0x3e2537b5	0.16134532
222	0xbdb822e5	-0.089910306
223	0x3caf6c53	0.021413958
224	0x3d8c02f3	0.068365
225	0x3c3bf574	0.011472095
226	0x3d956825	0.072952546
227	0x3e280002	0.16406253
228	0x3c8177b0	0.015804142
229	0x3dc379d0	0.09544718
230	0x3d263680	0.04057932
231	0xbdcd25ea	-0.10016997
232	0x3c4cb733	0.01249485
233	0x3d3ddbd0	0.046352208
234	0xbdea7dda	-0.114497855
235	0x3ccd3fb6	0.025054794
236	0x3a802158	0.0009775562
237	0xbd442477	-0.047886338
238	0xbe0431a3	-0.1290956
239	0xbea1c265	-0.31593624
240	0xbed2e516	-0.41190404
241	0xbdeabb7c	-0.11461541
242	0x3d50bc4d	0.050960828
243	0xbcd34354	-0.02578894
244	0xbd9a672f	-0.07539212
245	0xbdd5de70	-0.10442817
246	0xbe55a96f	-0.20865415
247	0xbdd8afc1	-0.105803974
248	0xbe06f251	-0.13178374
249	0x3db1efa2	0.086882845
250	0x3e8125ad	0.25224057
251	0xbe05d1f9	-0.1306838
252	0xbe076ce5	-0.13225134
253	0x3d34a35e	0.04410111
254	0xbe8c48e6	-0.27399367
255	0x3d304aa4	0.043039933

base.policy_head.bias f4 [128]
0	0xbc0d076b	-0.008607726
1	0xbc6f93b6	-0.014622619
2	0x3ca269f2	0.01982591
3	0x3d522550	0.051305115
4	0x3cca5bd1	0.024701985
5	0xbc04734e	-0.008084131
6	0xbb952137	-0.0045510787
7	0xbcb4897e	-0.022038218
8	0x3c9d37ed	0.019191707
9	0x3cd871df	0.026421485
10	0xbb54cc5d	-0.0032470443
11	0x3cea04da	0.028566767
12	0xbd4f4e72	-0.05061192
13	0xbc8dc664	-0.017306514
14	0x3ca36e87	0.019950164
15	0x3c714ef4	0.014728297
16	0xbcdfde12	-0.027327571
17	0xbcb11c8b	-0.021620056
18	0xbc116c25	-0.008875881
19	0xbb469ecc	-0.0030307053
20	0xbb8448f9	-0.0040370193
21	0xbd15ebcf	-0.036601838
22	0xbd1f122f	-0.0388357
23	0xb9df7177	-0.00042618412
24	0xbd388ed9	-0.045058105
25	0xbcaf54d1	-0.021402748
26	0x3cbf05c5	0.02331818
27	0x3baf273e	0.005345254
28	0x3d03f81c	0.032219037
29	0x3a94109c	0.0011296454
30	0x3c13724e	0.00899942
31	0x3d135931	0.03597373
32	0x3b975027	0.004617709
33	0x3c1eae94	0.009685177
34	0xbceb8a2e	-0.028752413
35	0x3d4bb9a2	0.04973758
36	0xbb7f379e	-0.0038943063
37	0xbcce8410	-0.025209457
38	0xbc0489df	-0.008089512
39	0xbd179626	-0.037008427
40	0x3c4e3023	0.012584719
41	0x3cdb38ee	0.026760545
42	0xbd23bf9b	-0.03997765
43	0x3c489945	0.012243574
44	0xbd6b1009	-0.05738834
45	0xbc845f8d	-0.016158843
46	0x3c7b8079	0.0153504545
47	0xbbc1832d	-0.00590553
48	0x3d37ac20	0.044841886
49	0x3c9a0a35	0.018803695
50	0x3d1916df	0.037375327
51	0xbce2f7fa	-0.027706135
52	0x3af0e86f	0.0018379817
53	0xbc4d167b	-0.012517567
54	0xbca2c41e	-0.019868907
55	0xbb569754	-0.0032744007
56	0x3c1c6f22	0.0095479805
57	0xbb97135c	-0.004610462
58	0x3c1cdee8	0.009574629
59	0xbd18df04	-0.03732206
60	0xbb2c92ab	-0.0026332538
61	0xbbf1bb71	-0.007377081
62	0x3cb4420f	0.022004155
63	0x39987e43	0.00029085772
64	0x3cedfcfa	0.029051293
65	0xbcb01f9b	-0.021499446
66	0x3d1fb8e7	0.038994696
67	0x3b927ac2	0.0044702003
68	0x3cce9ecd	0.025222206
69	0xbd131141	-0.035905126
70	0x3d00e261	0.03146589
71	0xbc0345a1	-0.008012206
72	0x3cc00e90	0.023444444
73	0x3ce300e7	0.027710391
74	0xbc1baa16	-0.009501001
75	0x3c850f92	0.016242776
76	0x3cc0bf32	0.023528669
77	0xbc8f29ca	-0.017475981
78	0x3c7bac2a	0.015360871
79	0xba8aa205	-0.001057685
80	0x3be4359e	0.0069643995
81	0x3c5c3fce	0.013442947
82	0xbccc05b3	-0.024905061
83	0xbc681176	-0.014164319
84	0xbd3111dd	-0.043229926
85	0x3c8543af	0.016267626
86	0x3c562e36	0.013072541
87	0x3c544c26	0.012957608
88	0xbb715e7f	-0.0036830006
89	0x3d45dc66	0.04830589
90	0x3c5fb462	0.013653846
91	0x3c577729	0.013150969
92	0x3b8eb13e	0.004354625
93	0x3c8ed47b	0.017435303
94	0xbd0e3e28	-0.034727246
95	0xbceb2d19	-0.028708028
96	0xbd1c37b1	-0.03813905
97	0xbc1d902d	-0.009616894
98	0x3d527bde	0.05138766
99	0x3c6d4295	0.014481206
100	0xbd21dc60	-0.039516807
101	0x3cb4a488	0.02205111
102	0xbcd76861	-0.026294889
103	0x3cbed11f	0.023293076
104	0x3d484997	0.048898306
105	0xbcf86162	-0.030319873
106	0x3c8e260e	0.01735213
107	0xbcdfdbac	-0.027326427
108	0xbc0f5f1f	-0.008750706
109	0x3b5ec190	0.0033989884
110	0xbc4da6ac	-0.012551945
111	0x3c37d09c	0.01121917
112	0x3cf0fe96	0.029418271
113	0x3beb7f99	0.0071868417
114	0xbb87c801	-0.0041437154
115	0xbd0fb0f9	-0.035080884
116	0xbd05ef86	-0.03269913
117	0xbb51db53	-0.0032021597
118	0xbc038e62	-0.008029552
119	0x3d06bf6a	0.03289739
120	0x3cecd599	0.028910445
121	0xbd1c4c14	-0.03815849
122	0x3d27bc3b	0.040950995
123	0x3d429ca3	0.04751266
124	0xbcdabebc	-0.026702277
125	0x3b99b62b	0.0046909056
126	0x3d1ed02a	0.03877274
127	0x39543807	0.00020238767
