weights/weights-200iter.pt (torch_old, 230745 bytes, 13 tensors)

base.base.0.weight f4 [32, 17, 3, 3]
0	0xbdafd777	-0.085860185
1	0x3d59d379	0.05318019
2	0x3d09fbff	0.033687588
3	0xbe5995bb	-0.21248524
4	0x3b072a63	0.002062463
5	0xbd75c0ee	-0.059998445
6	0xbe6be2e0	-0.23035765
7	0xbdffd569	-0.12491877
8	0xbe292b83	-0.16520505
9	0xbec579e2	-0.38569552
10	0xbe9d2ead	-0.30699673
11	0x3bdac145	0.0066758716
12	0x3e69618d	0.22791119
13	0xbe3d476f	-0.18484281
14	0xbe9cd0cc	-0.3062805
15	0xbd9e3beb	-0.07726272
16	0x3c125b49	0.008932897
17	0x3d32512a	0.043534435
18	0xbe3cf477	-0.18452631
19	0xbe5e9973	-0.21738224
20	0x3dc6a868	0.0970009
21	0x3e0a912f	0.13531946
22	0xbe1ef52c	-0.15523213
23	0xbf063ded	-0.5243824
24	0xbe9e77a8	-0.30950665
25	0xbdbde392	-0.09271921
26	0xbe4252d7	-0.18976913
27	0xbe1b94fc	-0.15193552
28	0x3f16c615	0.58896
29	0xbf8934e1	-1.0719262
30	0x3dd46c7a	0.10372253
31	0x3db91fc2	0.090392604
32	0x3df2ecb6	0.11861555
33	0x3e3b43cf	0.18287586
34	0xbe90d722	-0.28289133
35	0xbe138ae1	-0.14408447
36	0x3f6c5b00	0.92326355
37	0x3ed37561	0.4130049
38	0x3fa1d377	1.2642659
39	0x3ed5e9da	0.41779977
40	0x3f38e1a0	0.72219276
41	0x3f3d6c04	0.73992944
42	0x3f59b7e5	0.85046226
43	0x3ef35f56	0.47533673
44	0x3f60678b	0.87657994
45	0xbe7e26e4	-0.24819523
46	0xbd058510	-0.0325976
47	0x3de8bfe4	0.11364725
48	0x3c8e6d93	0.017386233
49	0xbe779aa1	-0.2418008
50	0x3e80c7cf	0.25152442
51	0x3e8a53ec	0.27017152
52	0x3d04b9c6	0.03240373
53	0x3e3837d1	0.17990042
54	0xbc5bf4d5	-0.013425072
55	0xbfd67a34	-1.6756043
56	0x3f4a1c3e	0.78949344
57	0xbda78ad6	-0.08180778
58	0xbdfd9a60	-0.1238296
59	0xbea8b854	-0.3295313
60	0xbe867868	-0.26263738
61	0x3e8c1bf9	0.2736509
62	0x3e1359f3	0.14389782
63	0x3eacf5e1	0.3378134
64	0x3e472c54	0.19450504
65	0x3ecced4c	0.40024793
66	0x3d4b757d	0.049672592
67	0xbe1a253f	-0.15053271
68	0xbe037819	-0.12838782
69	0xbe505dc8	-0.20348275
70	0xbe1495d0	-0.14510274
71	0x3e012f3f	0.12615679
72	0xbf1edd77	-0.6205668
73	0x3ea138e5	0.3148872
74	0xbf297dbf	-0.662075
75	0xbcbd3ead	-0.023101175
76	0x3e43593a	0.19077006
77	0x3e1422fc	0.1446647
78	0xbd88e746	-0.06684737
79	0xbc6a2d3b	-0.01429301
80	0xbe20874b	-0.1567661
81	0xbba9771a	-0.0051716687
82	0x3edbabbb	0.42904457
83	0x3e0cfb11	0.13767649
84	0xbe417111	-0.18890788
85	0x3e16641e	0.14686629
86	0xbe800053	-0.25000247
87	0xbe2f0a0d	-0.17093678
88	0x3e49cd54	0.19707233
89	0xbe24f015	-0.16107209
90	0x3b9adff2	0.0047264034
91	0xbe15c613	-0.1462634
92	0xbe433c6d	-0.1906602
93	0x3ce3a7a6	0.027789902
94	0xbd519706	-0.051169418
95	0x3db33e5b	0.08752128
96	0x3e2004ad	0.15626784
97	0xbe40b540	-0.18819141
98	0xbd613b10	-0.054987967
99	0xbe0c1e92	-0.13683537
100	0x3d439d47	0.047757413
101	0xbd9bb12a	-0.07602151
102	0x3cfb9d91	0.030714782
103	0x3d6e42c2	0.058169134
104	0x3e57fa94	0.21091682
105	0x3e56008f	0.2089865
106	0x3e59756b	0.21236198
107	0x3e3e8af9	0.18607701
108	0xbd05c8c7	-0.03266218
109	0x3df920c9	0.121644564
110	0x3bc72a02	0.006078006
111	0xbe44a647	-0.19204055
112	0xbd908447	-0.0705648
113	0x3e73584c	0.23764151
114	0xbdbacaa2	-0.091206804
115	0x3e281784	0.1641522
116	0x3dbc58b7	0.091966085
117	0x3dbbca62	0.09169461
118	0xbd858a17	-0.06520479
119	0x3d67a3c4	0.056552663
120	0xbdae5835	-0.08512918
121	0xbdc0ff46	-0.094236895
122	0x3e158630	0.1460197
123	0x3d406988	0.046975642
124	0x3dbf1929	0.09330971
125	0xbbb11ac4	-0.005404802
126	0xbdbfaf5a	-0.093596175
127	0xbcf91707	-0.030406488
128	0xbe38eaee	-0.18058369
129	0xbceeb552	-0.029139195
130	0x3baf34d4	0.005346874
131	0x3e552150	0.20813489
132	0xbdbe1bd9	-0.09282655
133	0x3e883de3	0.26609716
134	0x3c4264ec	0.011864882
135	0x3c46da66	0.012137031
136	0xbd0d440e	-0.03448873
137	0xbcd5de2f	-0.026106922
138	0xbd0f6757	-0.035010662
139	0xbdce51cb	-0.100741945
140	0xbb4e794a	-0.00315054
141	0xbe01a3c8	-0.12660134
142	0xbd9bc5d9	-0.07606096
143	0xbcbad5d4	-0.02280704
144	0xbddd322d	-0.10800586
145	0x3dcdd11d	0.10049651
146	0x3e1e99f3	0.15488414
147	0xbdab78a8	-0.08372623
148	0x3e2262d6	0.15858015
149	0xbe042c14	-0.1290744
150	0x3daac02c	0.08337435
151	0xbd77d054	-0.06050141
152	0x3d1da3ae	0.038486175
153	0xbc7426d9	-0.01490184
154	0xbe26e1f9	-0.16297139
155	0x3d26d3fd	0.04072951
156	0x3da517c5	0.08061174
157	0x3dabec8c	0.08394727
158	0x3d6c013e	0.057618372
159	0x3d816d7e	0.06319712
160	0x3cfda69b	0.030963233
161	0xba86de3d	-0.0010289621
162	0x3d9f1502	0.07767679
163	0x3e2d3e53	0.16918306
164	0x3e8de5a5	0.27714267
165	0xbe0e15e4	-0.13875538
166	0xbe5ac5ed	-0.21364565
167	0xbe0304f3	-0.12794857
168	0xbe22e36b	-0.15907066
169	0x3d1eb3c0	0.03874564
170	0x3d26e913	0.04074962
171	0x3e9023cb	0.28152308
172	0x3e64b100	0.22333145
173	0x3ecfbb70	0.4057269
174	0x3cd56c70	0.026052684
175	0xbe50dfcc	-0.20397872
176	0xbdc6afd0	-0.09701502
177	0xbeb82c50	-0.35971308
178	0x3e455923	0.19272284
179	0xbdbb45e2	-0.091441885
180	0x3ea0178b	0.31267962
181	0xbe97f5a9	-0.2967961
182	0x3f4ec3d7	0.8076758
183	0x3f512d46	0.81709707
184	0xbd985279	-0.074376054
185	0xbf59e27e	-0.85111225
186	0xbe0fc3c5	-0.14039524
187	0xbe231206	-0.15924844
188	0x3e5c144a	0.21492115
189	0x3dd7891c	0.105241984
190	0xbf270a7a	-0.6525036
191	0xbefc05ca	-0.49223167
192	0xbe8bbb9c	-0.27291572
193	0xbe1e762d	-0.15474768
194	0xbe4c5a33	-0.19956283
195	0x3e8e28f1	0.2776561
196	0x3ebe17ca	0.37127525
197	0xbcb08ce7	-0.021551562
198	0xbe611f7e	-0.2198467
199	0xbe1445bd	-0.14479728
200	0xbeb3c2be	-0.35109514
201	0xbec78695	-0.38969865
202	0xbed563d0	-0.41677713
203	0xbf0e7049	-0.55640084
204	0xbd8eacfa	-0.069665864
205	0xbe80bd38	-0.25144362
206	0xbe98ebf6	-0.29867524
207	0xbedd1dc7	-0.4318678
208	0xbc21a61c	-0.009866264
209	0xbf71f201	-0.94509894
210	0xbf844e20	-1.0336342
211	0x3f34011c	0.7031419
212	0x3f9c9823	1.2233928
213	0xbe524588	-0.20534337
214	0x3ef8a0d0	0.4856019
215	0xbea1808b	-0.31543383
216	0xbe880543	-0.26566514
217	0xbded9b04	-0.116018325
218	0x3e1523e5	0.14564474
219	0xbe2645f2	-0.1623762
220	0x3f16b8a9	0.5887552
221	0xbce00f78	-0.027351126
222	0x3e0b9737	0.13631903
223	0x3e19130c	0.14948672
224	0x3dd053dd	0.10172246
225	0xbe4f80b2	-0.20263937
226	0xbcb27e54	-0.021788754
227	0x3eb75d7e	0.35813516
228	0x3e85bbc4	0.26119816
229	0x3e0fb9c3	0.14035706
230	0xbe8a2b1d	-0.26986018
231	0x3daf1a0c	0.0854989
232	0xbdcac6b0	-0.09901178
233	0xbe9bc1e0	-0.30421352
234	0x3ed03288	0.40663552
235	0x3d773770	0.060355604
236	0x3ef4ab14	0.47786772
237	0x3da259f8	0.079273164
238	0xbeb9744a	-0.36221534
239	0xbe1724f9	-0.14760198
240	0xbdaf7712	-0.08567633
241	0xbe8b1031	-0.2716079
242	0x3dbb8b0c	0.091573805
243	0xbe66d9c8	-0.22544014
244	0xbeb1b271	-0.34706452
245	0xbe0f6a2b	-0.14005344
246	0xbef0ad45	-0.47007194
247	0xbe6e06c8	-0.23244774
248	0xbe16e6ab	-0.1473643
249	0xbe619b80	-0.22031975
250	0xbe2acf6c	-0.16680688
251	0xbdf83b83	-0.12120726
252	0xbe4bdb98	-0.19907987
253	0xbd92d4a2	-0.07169463
254	0xbe0fcd1d	-0.14043088
255	0xbe496cb1	-0.19670369

base.base.0.bias f4 [32]
0	0xbca713a4	-0.020395108
1	0xbddf4e6b	-0.10903629
2	0xbe1e8a1b	-0.1548237
3	0xbd802b34	-0.0625824
4	0xbd66a56c	-0.056310102
5	0xbe0e2626	-0.1388174
6	0xbe37b690	-0.17940736
7	0xbcd9a120	-0.026566088
8	0x3ecd79e1	0.4013205
9	0x3e0f238f	0.13978408
10	0xbd4fb67a	-0.050711133
11	0x3e6d6760	0.23183966
12	0xbe36f6a4	-0.17867523
13	0x3e9f9719	0.31169966
14	0xbdcffa4a	-0.10155161
15	0xbcf83291	-0.03029755
16	0xbe83a3af	-0.25710818
17	0xbc813dd0	-0.015776545
18	0x3dafc51b	0.08582517
19	0xbd54e77c	-0.051978573
20	0xbe986b9d	-0.29769602
21	0x3cef0ba3	0.029180354
22	0xbe7e9998	-0.24863279
23	0xbd1e7fae	-0.038695984
24	0xbd046b2f	-0.03232878
25	0xbb4d4383	-0.0031320758
26	0x3d819a1a	0.06328221
27	0x3bb8f170	0.005644016
28	0x3deeead2	0.11665882
29	0xbd8c32c1	-0.06845618
30	0x3c1d83d3	0.009613949
31	0xbdea6e02	-0.114467636

base.base.2.weight f4 [32, 32, 3, 3]
0	0x3ea8a282	0.32936484
1	0x3e221759	0.15829219
2	0xbd219554	-0.03944905
3	0xbb320804	-0.0027165422
4	0xbe214c1b	-0.15751688
5	0x3c2f7bd1	0.0107106725
6	0xbe028c23	-0.1274877
7	0xbeb0f311	-0.34560445
8	0xbe8d4438	-0.2759111
9	0x3d7d59cd	0.06185322
10	0x3e834b22	0.2564326
11	0x3e30c512	0.17262676
12	0x3c59b217	0.013287089
13	0xbc396ba6	-0.011317169
14	0xbce50b8b	-0.027959606
15	0xbe5c8876	-0.2153643
16	0x3d23bc6d	0.03997462
17	0x3c4d77f5	0.012540807
18	0xbdb047d7	-0.08607452
19	0x3d82e0a2	0.063905016
20	0x3e4031dc	0.1876902
21	0x3dbb0ead	0.091336586
22	0xbee94241	-0.4555836
23	0x3e167e12	0.1469653
24	0x3eadf8d2	0.33978897
25	0xbeb2806d	-0.34863606
26	0xbe5e4bd6	-0.21708617
27	0x3d397871	0.045280878
28	0xbf06775a	-0.52525866
29	0xbec4e5b7	-0.3845651
30	0x3d18ed71	0.037335817
31	0xbeb9dce0	-0.36301327
32	0x3d7df1a3	0.06199802
33	0x3daa0e6c	0.08303532
34	0xbead46b7	-0.33843014
35	0x3d95cabc	0.07314059
36	0xbd9a6a7c	-0.075398415
37	0xbcecddf6	-0.028914433
38	0xbdd2e55a	-0.102976516
39	0xbe89a873	-0.2688633
40	0xbe9af27f	-0.30263135
41	0xbd5d93b7	-0.05409595
42	0x3e1c3513	0.15254621
43	0xbe2e5f0b	-0.17028444
44	0x3e1b951f	0.15193604
45	0xbe3b24b8	-0.18275726
46	0x3d552830	0.05204028
47	0x3d0e657c	0.03476475
48	0x3c3e51d4	0.011616189
49	0xbdeb443a	-0.114876226
50	0x3d401c2d	0.04690187
51	0xbe2bc7cd	-0.16775437
52	0x3d2276a3	0.039663922
53	0x3e5a29d5	0.2130502
54	0xbe0205b6	-0.12697491
55	0xbba9e480	-0.00518471
56	0x3e1a9304	0.15095145
57	0x3dc8a617	0.09797304
58	0xbcbab8a9	-0.022793131
59	0xbe077909	-0.13229765
60	0xbd269f89	-0.04067949
61	0xbd086c94	-0.033306673
62	0x3d8a120a	0.06741722
63	0xbc62b9ee	-0.013838274
64	0x3de6a00c	0.11260995
65	0x3e639fe5	0.22228964
66	0xbdf2a320	-0.1184752
67	0xbe6e5931	-0.23276211
68	0xbe979d28	-0.29612088
69	0x3e32ef52	0.17474106
70	0xbea25d33	-0.3171173
71	0xbf290169	-0.66017777
72	0x3e1e4d1c	0.15459102
73	0xbeccd37d	-0.40005103
74	0x3e02bfd5	0.1276849
75	0xbb68c72d	-0.0035519109
76	0x3cc1af36	0.023643117
77	0xbe14220a	-0.1446611
78	0xbd9514b9	-0.07279343
79	0xbd966e12	-0.07345213
80	0x3e1b824b	0.15186422
81	0xbe61c2a2	-0.22046903
82	0x3c8472e1	0.01616806
83	0x3e18bbb9	0.1491536
84	0xbdcbfc2c	-0.09960207
85	0x3de23812	0.11045851
86	0xbdfa5d50	-0.12224829
87	0xbf019b81	-0.50627905
88	0x3d8e3287	0.06943231
89	0x3e6c3e1a	0.23070565
90	0x3cccaca1	0.02498466
91	0x3e0cc88e	0.1374838
92	0xbc07a3c9	-0.0082787955
93	0x3e10d8a8	0.14145148
94	0xbdd3a1f5	-0.10333625
95	0xbabe0dc4	-0.0014499952
96	0x3e1d895b	0.15384428
97	0xbe5ccd57	-0.21562706
98	0xbdde6e5d	-0.10860894
99	0x3e2ca77d	0.16860767
100	0xbe0f2163	-0.1397758
101	0x3de3ac4e	0.11116849
102	0x3d31e534	0.043431476
103	0xbd29509e	-0.04133665
104	0xbbf5bdbe	-0.0074994257
105	0xbe9ab745	-0.3021795
106	0x3e489b50	0.19590497
107	0xbe78c124	-0.24292427
108	0x3de2b68c	0.11069974
109	0xbc286d39	-0.010279947
110	0x3e596521	0.21229984
111	0x3ca950f8	0.020668492
112	0xbdf7b273	-0.12094583
113	0xbe323d64	-0.17406231
114	0x3e64622f	0.22303079
115	0xbe640c4a	-0.22270313
116	0xbd802e63	-0.062588476
117	0x3cb8939a	0.02253132
118	0x3d9f3ff1	0.07775868
119	0x3dcc1769	0.09965403
120	0xbdeafe73	-0.114743136
121	0x3dca73fe	0.09885405
122	0xbdbd4131	-0.0924095
123	0x3e30e8ec	0.17276353
124	0x3e285ae2	0.16440919
125	0x3d371c6e	0.044704847
126	0x3c8d6e3c	0.017264478
127	0xbeb21b8d	-0.34786645
128	0x3db0709e	0.0861523
129	0xbb26de42	-0.0025462066
130	0x3e11292b	0.1417586
131	0x3e7ca206	0.24671182
132	0xbd9ae0e5	-0.075624265
133	0xbe0ccf72	-0.13751009
134	0xbc06bc15	-0.008223553
135	0x3e062171	0.13098694
136	0xbe63c056	-0.22241339
137	0xbc1306d2	-0.008973794
138	0x3aa6d79c	0.0012729052
139	0xbcaacba9	-0.020849066
140	0x3e05b8c7	0.13058768
141	0x3e056ec9	0.13030542
142	0x3e607abc	0.2192182
143	0xbe4f2476	-0.20228752
144	0xbd8fbf4b	-0.07018908
145	0x3dac59de	0.08415578
146	0xbe65cd19	-0.2244152
147	0xbe88fe47	-0.26756498
148	0x3d8453e3	0.064613126
149	0x3e2f5509	0.17122282
150	0xbdfd2e23	-0.123623155
151	0x3d94c121	0.07263399
152	0x3d6a6ee6	0.057234667
153	0x3dd8beac	0.10583243
154	0xbe9c1bd0	-0.3048997
155	0x3c8481ab	0.016175112
156	0xbdb66c95	-0.08907429
157	0xbd5c0832	-0.053718753
158	0x3e40b670	0.18819594
159	0xbd988af1	-0.07448376
160	0xbe23ea51	-0.16007353
161	0x3dea9a9b	0.1145527
162	0xbac8de7f	-0.0015325098
163	0xbe44dc29	-0.1922461
164	0xbd35677d	-0.044288147
165	0xbea8c59f	-0.32963273
166	0xbe6f2e51	-0.23357512
167	0x3ded5a06	0.11589436
168	0x3ae501cc	0.0017471849
169	0xbdfeb502	-0.12436868
170	0xbdf2c275	-0.11853496
171	0xbeb00c77	-0.3438451
172	0xbe51b9f6	-0.20481095
173	0x3d3cb4f9	0.046071026
174	0xbe6eee5c	-0.23333114
175	0x3e10daf6	0.14146027
176	0x3d99c67d	0.07508562
177	0x3e2770e9	0.16351666
178	0xbd6e51f3	-0.05818362
179	0xbe4cb124	-0.19989449
180	0xbe7469ac	-0.23868436
181	0xbe03836e	-0.12843105
182	0x3ce6e76c	0.028186522
183	0xbc94eadb	-0.018178394
184	0x3e1c7c5c	0.15281814
185	0x3d90b170	0.070650935
186	0xbd1b1f82	-0.037871845
187	0xbe91c2c1	-0.28468898
188	0x3cae82bc	0.021302573
189	0x3d7b50d2	0.061356373
190	0x3db9e45d	0.0907676
191	0xbd4aeaf2	-0.049540468
192	0xbd445ac5	-0.047938127
193	0xbd995b85	-0.07488159
194	0x3d331c0b	0.043727916
195	0xbbf021d6	-0.0073282523
196	0x3e4b461c	0.19850963
197	0xbd93df4d	-0.072203256
198	0xbe26ba1b	-0.16281931
199	0xbee0a665	-0.4387695
200	0xbdcc58d9	-0.09977884
201	0xbbeac1f4	-0.0071642343
202	0x3d81834e	0.063238725
203	0x3c82c5fe	0.01596355
204	0xbd5f6528	-0.05453983
205	0xbdf22f72	-0.11825456
206	0xbe2e9673	-0.1704958
207	0xbbf49112	-0.007463583
208	0xbd597348	-0.053088456
209	0xbd2650a6	-0.040604256
210	0xbe1338df	-0.14377163
211	0xbe858a57	-0.26082107
212	0xbe50b7ec	-0.2038266
213	0x3e20b35c	0.1569342
214	0xbe3118b7	-0.17294584
215	0xbeac93e0	-0.3370657
216	0x3e27a4e4	0.16371495
217	0xbe324925	-0.17410715
218	0x3e917ed5	0.28417078
219	0xbe20fd5f	-0.15721653
220	0xbe85d9e3	-0.26142797
221	0xbe4d0d41	-0.20024587
222	0x3d629f79	0.055327866
223	0xbb7e32fb	-0.003878771
224	0x3e2cd9d3	0.16879968
225	0xbe24ad93	-0.16081838
226	0xbe253576	-0.16133675
227	0xbeeb17c1	-0.4591656
228	0x3de301ae	0.11084305
229	0xbe6702fa	-0.22559729
230	0xbe5373af	-0.20649599
231	0x3e2a6214	0.16638976
232	0xbed50950	-0.41608667
233	0x3e4b253d	0.19838424
234	0x3e06d8d3	0.1316865
235	0xbe49b41b	-0.19697611
236	0xbe59c10e	-0.21265051
237	0x3e372a7d	0.17887302
238	0xbefc5c14	-0.49289
239	0xbc42951d	-0.011876372
240	0xbcd96c08	-0.026540771
241	0xbeb230d1	-0.3480287
242	0xbe859452	-0.26089722
243	0x3da778a4	0.08177307
244	0x3d8ecea2	0.06973006
245	0x3cf8d792	0.03037623
246	0x3ea15ca5	0.31515995
247	0x3c9fef28	0.019523218
248	0xbc50b0b4	-0.012737442
249	0x3e8c0e99	0.27354887
250	0xbeb97019	-0.36218336
251	0xbe072267	-0.13196717
252	0x3ed46b98	0.41488338
253	0x3c01991b	0.007910038
254	0x3e7aee94	0.24505073
255	0x3e1ba109	0.15198149

base.base.2.bias f4 [32]
0	0x3d1e6a1b	0.03867541
1	0x3b71415a	0.0036812634
2	0xbcf48cbe	-0.029852267
3	0xbe16b95d	-0.14719148
4	0x3ceb3ef7	0.028716547
5	0xbd832daf	-0.06405198
6	0x3d8544b2	0.06507243
7	0xbc78db04	-0.015188936
8	0x3d3a7492	0.045521326
9	0x3e521aaa	0.20517984
10	0xbd6c3de5	-0.057676215
11	0x3d1a81db	0.037721496
12	0x3d9360f9	0.071962304
13	0xbd0f275b	-0.03494964
14	0xbd081fa2	-0.033233292
15	0xbd1c6c9c	-0.038189515
16	0x3e795eda	0.24352589
17	0xbd9acae1	-0.07558227
18	0x3b17e877	0.0023179331
19	0xbe2219ad	-0.15830107
20	0xbc31d571	-0.010854111
21	0x3d0b9c63	0.03408469
22	0x3e2bccba	0.16777316
23	0x3e9b42ba	0.30324346
24	0x3d65e3e4	0.056125537
25	0x3e8a684e	0.27032703
26	0xbcffcfdc	-0.031227045
27	0x3d7468ef	0.059670385
28	0xbd1e13c2	-0.03859306
29	0xbe4a2400	-0.19740295
30	0x3dcbd031	0.09951819
31	0xbe6ab31d	-0.22919889

base.base.4.weight f4 [32, 32, 3, 3]
0	0xbe32249d	-0.1739678
1	0x3de700b9	0.11279435
2	0xbdf1a3ae	-0.117987975
3	0x3d879f2d	0.06622157
4	0x3dcbc8b1	0.09950388
5	0x3d57c27c	0.05267571
6	0x3a844196	0.0010090347
7	0x3d274454	0.040836647
8	0x3d8423a4	0.064521104
9	0xbd6a49c6	-0.057199262
10	0x3c8f7a6a	0.017514426
11	0xbdeb8c55	-0.115013756
12	0xbda75d56	-0.08172099
13	0x3dcb6977	0.09932225
14	0xbc6e15e0	-0.014531583
15	0x3da01278	0.07816023
16	0x3ce4c293	0.027924811
17	0x3d753fa4	0.059875146
18	0xbd957224	-0.07297161
19	0xbd91d021	-0.071197756
20	0xbe544e00	-0.2073288
21	0xbe7e37b0	-0.2482593
22	0xbedd4c96	-0.43222493
23	0x3b317856	0.0027079782
24	0x3e443724	0.1916166
25	0xbe52034b	-0.20509069
26	0xbea884e0	-0.32913876
27	0xbecc746b	-0.3993257
28	0x3bad382c	0.005286237
29	0xbddd3873	-0.108017825
30	0x3e1362d4	0.14393169
31	0xbe4105d8	-0.18849885
32	0xbde89e77	-0.1135835
33	0x3d541fe3	0.051788222
34	0xbcd94628	-0.02652271
35	0xbe0be61e	-0.13662001
36	0xbd35e4bb	-0.044407587
37	0xbe8f09e7	-0.27937242
38	0x3d53fd77	0.051755395
39	0xbd4e62f2	-0.05038733
40	0xbda66b22	-0.08125903
41	0xbea41b6f	-0.3205218
42	0x3da0d59e	0.07853244
43	0x3cd75b92	0.026288781
44	0x3e0c5614	0.13704711
45	0x3d90a7ee	0.0706328
46	0x3db3e1b7	0.08783286
47	0xbe71fe94	-0.2363227
48	0x3d1f1ece	0.038847737
49	0x3e3d56e2	0.18490174
50	0x3dfbba15	0.12291352
51	0x3c74b2c4	0.014935199
52	0x3dce52eb	0.10074409
53	0xbcf600fa	-0.030029763
54	0xbeeb61e7	-0.4597313
55	0xbd5039c9	-0.05083636
56	0x3e1784f8	0.14796817
57	0xbe0b6cd7	-0.13615738
58	0xbec70e60	-0.38878155
59	0xbe0cbac0	-0.13743114
60	0xbd2590ec	-0.04042141
61	0xbe592c93	-0.2120841
62	0xbe167aa5	-0.14695223
63	0x3e050660	0.12990713
64	0xbe0cd2f7	-0.13752352
65	0x3e07f2d2	0.13276222
66	0x3dc14785	0.094374694
67	0x3d9037a6	0.07041864
68	0xbdd1b3f4	-0.102394015
69	0xbd81bae8	-0.06334478
70	0xbd6366aa	-0.05551783
71	0xbe188009	-0.14892592
72	0xbddf1487	-0.10892587
73	0x3d9ccb22	0.07655932
74	0xbe017321	-0.12641574
75	0x3d6ba29f	0.057528134
76	0xbe4ce3f2	-0.20008829
77	0xbed62287	-0.41823217
78	0xbea4e6dc	-0.32207382
79	0x3bd2f47e	0.006437837
80	0xbe6af0ee	-0.2294347
81	0x3e23881f	0.15969895
82	0x3dd25dba	0.10271783
83	0x3e8303b9	0.25588778
84	0xbdab7f33	-0.08373871
85	0xbd9de92e	-0.07710491
86	0x3e02b6a9	0.12764992
87	0xbdb7275c	-0.08943054
88	0x3c25bb71	0.01011549
89	0x3dd26ceb	0.10274681
90	0x3d4c91f6	0.049943887
91	0xbd7287e3	-0.059211623
92	0xbe280aba	-0.16410342
93	0x3d8cdacb	0.06877669
94	0x3e0135c6	0.12618169
95	0xbd38c31c	-0.045107946
96	0xbd6d7021	-0.057968263
97	0x3e60077e	0.21877858
98	0x3e0bbaf9	0.13645543
99	0x3ea3c26b	0.31984267
100	0x3e335486	0.17512712
101	0xbc2e4fd3	-0.010639149
102	0xbdef2eb0	-0.11678827
103	0xbd7faf4d	-0.06242304
104	0xbd880dae	-0.06643234
105	0x3cffc86a	0.031223495
106	0xbcf5042f	-0.029909221
107	0xbd990905	-0.074724235
108	0xbe6e3140	-0.23260975
109	0x3d00290f	0.031289157
110	0x3b97b9cf	0.0046303044
111	0xbd7fdca5	-0.062466282
112	0xbe5418dc	-0.20712608
113	0x3dba4955	0.09096018
114	0xbb257006	-0.0025243773
115	0xbd8a6d3b	-0.06759115
116	0x3d68e929	0.056862984
117	0x3c234f8c	0.009967696
118	0xbdba3cc6	-0.09093623
119	0xbc9d5ca2	-0.01920921
120	0x3e221261	0.15827323
121	0xbdfe83a1	-0.1242745
122	0xbcf75326	-0.030191015
123	0xbd9c69a4	-0.07637337
124	0x3c6c4b45	0.0144222425
125	0x3dbd34cf	0.09238588
126	0xbdd2141f	-0.10257744
127	0x3d1dbaa4	0.038508072
128	0xbce1abda	-0.027547766
129	0xbe073ea6	-0.13207492
130	0xbdd22b38	-0.102621496
131	0xbe0b2e02	-0.1359177
132	0x3e392d4e	0.18083689
133	0x3e39913b	0.18121807
134	0xbe3687af	-0.17825197
135	0x3d11291a	0.035439588
136	0x3ea072b6	0.31337517
137	0xbde31e90	-0.11089814
138	0xbe13e152	-0.14441422
139	0xbe462613	-0.19350462
140	0x3e55b428	0.20869505
141	0xbb93b93a	-0.0045081647
142	0x3da634a7	0.081155114
143	0x3eccffce	0.40038913
144	0x3b1a99df	0.002359025
145	0x3e1cdeec	0.15319413
146	0xbe3766c9	-0.17910303
147	0xbe193cbb	-0.14964573
148	0x3e3c4ee2	0.18389466
149	0xbe54b086	-0.20770463
150	0x3e86e5b6	0.2634713
151	0xbe08ffef	-0.13378881
152	0xbe1ca242	-0.15296271
153	0xbd5b050f	-0.05347162
154	0xbd383023	-0.04496778
155	0x3d160e06	0.036634468
156	0xbdeadb2d	-0.11467586
157	0x3e360481	0.17775156
158	0xbe0514c4	-0.12996203
159	0x3d271575	0.040791947
160	0x3e0ff590	0.14058518
161	0xbc1ce5fa	-0.009576315
162	0xbdd37310	-0.10324681
163	0x3d240a94	0.04004915
164	0x3d918680	0.07105732
165	0x3e976d2c	0.2957548
166	0xbcbada29	-0.022809105
167	0xbe4850ad	-0.19562025
168	0x3b9cea3c	0.004788665
169	0x3d8a61d2	0.06756939
170	0xbdb1e26f	-0.08685767
171	0xbe97f142	-0.29676253
172	0x3caa106a	0.02075978
173	0x3e84c498	0.2593124
174	0xbef72772	-0.48272282
175	0xbe57320c	-0.21015185
176	0xbc8fba5c	-0.017544918
177	0x3d328441	0.04358316
178	0xbd70232d	-0.058627296
179	0xbd5cb0cc	-0.053879544
180	0xbe66509c	-0.22491688
181	0xbe0384fd	-0.128437
182	0xb8ecc845	-0.0001129066
183	0x3e844e13	0.25840816
184	0x3d54899b	0.051889043
185	0xbe985bb1	-0.29757455
186	0xbd88c902	-0.06678964
187	0x3eb186f9	0.34673288
188	0x3dc28d07	0.09499555
189	0xbe2d45e3	-0.16921191
190	0xbe838dfa	-0.25694257
191	0xbead9b5c	-0.33907592
192	0xbde16e85	-0.11007408
193	0xbe6411ea	-0.22272459
194	0xbd8670f6	-0.06564514
195	0xbd04f080	-0.03245592
196	0x3d9c1b0a	0.07622345
197	0x3c6a00f1	0.014282451
198	0xbd99369a	-0.074811175
199	0xbe3ebb32	-0.18626097
200	0x3e8df735	0.27727666
201	0xbd7bac0a	-0.061443366
202	0xbcea28a6	-0.028583836
203	0xbe1ff440	-0.15620518
204	0xbe0263fa	-0.1273345
205	0xbe9a4dbb	-0.3013743
206	0x3dadfe79	0.084958024
207	0xbda4d46e	-0.0804833
208	0xbe360fc7	-0.17779456
209	0xbdcbc7db	-0.09950229
210	0x3eae9c89	0.34103802
211	0xbe031e8b	-0.1280462
212	0xbe40ca95	-0.18827279
213	0xbdb45adf	-0.08806395
214	0x3d6e4468	0.058170706
215	0xbdc99e44	-0.0984464
216	0xbe6d9038	-0.23199546
217	0xbe2c42f1	-0.16822411
218	0x3ddd34a6	0.108010575
219	0xbe06f066	-0.13177642
220	0x3d8ffee1	0.07031036
221	0xbd15f298	-0.03660831
222	0xbe69e85f	-0.22842549
223	0xbe5352b7	-0.20637022
224	0xbd86b53b	-0.06577536
225	0x3d3608d1	0.044442
226	0xbb70cab0	-0.0036741905
227	0xbe84b9d6	-0.25923032
228	0x3d4330c6	0.047653936
229	0xbe420a47	-0.18949233
230	0x3d89d274	0.06729594
231	0x3e901cfd	0.28147116
232	0x3e127b82	0.14304927
233	0xbd96b332	-0.073583975
234	0xbdd254e7	-0.102701
235	0xbe0da7bb	-0.13833515
236	0xbd282bf6	-0.04105755
237	0x3e07f72e	0.13277885
238	0x3c779c72	0.015112983
239	0x3e62e121	0.22156192
240	0x3df559b2	0.11979999
241	0x3e71a476	0.23597893
242	0xbdb97e9f	-0.09057354
243	0xbd485570	-0.048909605
244	0x3d0fb07a	0.03508041
245	0xbe585e1a	-0.21129647
246	0x3d6c00f0	0.05761808
247	0xbe6ffd05	-0.23436363
248	0xbdcfdf58	-0.10150021
249	0xbad2ec33	-0.0016092121
250	0xbdc899c4	-0.097949535
251	0xbe0360f6	-0.12829956
252	0xbecc5aa5	-0.39912906
253	0xbcbc5f56	-0.022994678
254	0x3dc3e171	0.09564484
255	0x3d0e1bd6	0.034694515

base.base.4.bias f4 [32]
0	0xbe690ff4	-0.22759992
1	0xbe7f453c	-0.24928755
2	0xbe367791	-0.17819048
3	0xbdda76d2	-0.106671944
4	0xbdc41d6c	-0.09575924
5	0xbe17694f	-0.14786266
6	0xbdd95b3b	-0.10613104
7	0xbdf87ee1	-0.12133575
8	0xbd9b514d	-0.07583866
9	0xbe4c44d5	-0.19948132
10	0xbdad6599	-0.08466644
11	0xbe25e055	-0.16198857
12	0xbd9c5d0e	-0.07634936
13	0xbe4b6bec	-0.19865388
14	0xbddd9b10	-0.108205914
15	0xbdf1a6b7	-0.117993765
16	0xbdaf1047	-0.085480265
17	0xbd523349	-0.05131844
18	0xbe2c99b6	-0.16855511
19	0xbd1798d8	-0.037010998
20	0xbddf4eb9	-0.10903687
21	0xbddc095e	-0.10743974
22	0x3d1d6455	0.038425762
23	0xbe29d1a3	-0.16583876
24	0xbe7f2c3f	-0.24919222
25	0xbe16eb7c	-0.14738268
26	0xbd843b23	-0.06456592
27	0xbd9c1dbf	-0.07622861
28	0xbe432cf2	-0.19060114
29	0xbdfb8566	-0.12281303
30	0xbe34c8d2	-0.17654732
31	0xbe2a641d	-0.16639753

base.fc1.weight f4 [128, 128]
0	0x3c48c377	0.012253634
1	0x3e1a633c	0.15076917
2	0x3d42b48b	0.04753546
3	0xbe262bf2	-0.16227701
4	0xbe13b34a	-0.14423862
5	0x3db195c1	0.086711414
6	0x3d15b90b	0.036553424
7	0xbd076cd3	-0.033062767
8	0x3ef91739	0.4865053
9	0xbec79ad6	-0.38985318
10	0xbe37a994	-0.17935783
11	0x3d0986ff	0.033576008
12	0xbe004f60	-0.12530279
13	0xbdacd163	-0.08438375
14	0x3ea12003	0.31469736
15	0xbd060325	-0.032717843
16	0xbba256a0	-0.004954174
17	0x3cb1984a	0.021679062
18	0xbe5fc880	-0.21853828
19	0xbea08e06	-0.31358355
20	0xbe7af004	-0.24505621
21	0xbedaa04e	-0.42700428
22	0x3daa9de8	0.083308995
23	0x3e09a304	0.13441092
24	0xbdb30f1f	-0.087431185
25	0xbb5c6fdd	-0.0033636012
26	0xbb718696	-0.00368539
27	0x3e0423f2	0.12904337
28	0x3e69694f	0.22794078
29	0x3dcbda97	0.09953802
30	0x3e80356c	0.25040758
31	0xbc9226d0	-0.017840773
32	0xbe166b08	-0.14689267
33	0x3e399c03	0.1812592
34	0x3e0306e0	0.12795591
35	0x3d8deb99	0.06929702
36	0xbe60869f	-0.21926354
37	0xbe750f05	-0.23931511
38	0x3e1dec15	0.1542209
39	0x3dd89bb4	0.10576573
40	0xbd87c56e	-0.066294536
41	0x3e528456	0.20558295
42	0x3e36a33a	0.17835703
43	0x3c80bf23	0.015716141
44	0xbd0b1395	-0.03395422
45	0xbd3a7726	-0.045523785
46	0x3e01313f	0.12616442
47	0xbd01b9fa	-0.0316715
48	0x3c5d78fc	0.013517614
49	0xbf00e891	-0.5035487
50	0x3e10e4c3	0.14149766
51	0x3d355374	0.04426904
52	0xbebc03ec	-0.36721742
53	0x3da31eca	0.07964857
54	0xbe9a7606	-0.3016817
55	0xbd3eea05	-0.046609897
56	0xbefa73e1	-0.48916534
57	0x3e469ce0	0.1939578
58	0x3e3e6f85	0.18597229
59	0x3dd04b3b	0.10170599
60	0xbe9dd330	-0.30825186
61	0xbe92b119	-0.2865074
62	0xbe944db3	-0.2896553
63	0x3e4d2763	0.20034556
64	0xbe8b8a56	-0.2725398
65	0x3e71b7bb	0.23605244
66	0x3d961aa0	0.07329297
67	0x3d983812	0.074325696
68	0x3d4d4656	0.050115906
69	0xbe06d420	-0.13166857
70	0x3e47859d	0.19484563
71	0xbd9c6f03	-0.07638361
72	0x3d178f20	0.03700173
73	0x3ec1d2ee	0.3785624
74	0x3cd72368	0.026262
75	0x3f02e567	0.5113129
76	0x3e4a0514	0.197285
77	0x3db39f3f	0.08770608
78	0x3e379951	0.1792958
79	0x3cf2aba1	0.029622855
80	0x3e5942de	0.21216914
81	0x3e58cc89	0.21171774
82	0x3e60dba7	0.2195879
83	0x3d58db5b	0.05294357
84	0xbe85e2ff	-0.26149747
85	0x3e0620f6	0.13098511
86	0xbec636d7	-0.38713714
87	0xbe1b96d3	-0.15194254
88	0x3e3a19d1	0.1817391
89	0xbd7d677f	-0.06186628
90	0x3e793af0	0.24338889
91	0xbb24f9d1	-0.0025173316
92	0xbd5ea107	-0.054352786
93	0x3bb63984	0.0055610556
94	0x3e4aa22c	0.19788426
95	0xbe5e3763	-0.21700816
96	0xbe2da53f	-0.16957568
97	0xbdced12b	-0.100984894
98	0x3dbdc367	0.09265786
99	0xbe18f108	-0.14935696
100	0x3bb1df99	0.0054282662
101	0xbe81dd71	-0.2536426
102	0x3dcbc9d2	0.099506035
103	0x3d62f972	0.05541367
104	0x3d1199e1	0.03554714
105	0x3e1b2000	0.15148926
106	0x3e0e7340	0.13911152
107	0xbd67941e	-0.05653774
108	0x3ec63a0b	0.38716158
109	0xbdef753c	-0.116922826
110	0x3ead2bbc	0.3382243
111	0xbe043308	-0.12910092
112	0x3d510f1a	0.051039793
113	0x3ea52096	0.32251424
114	0xbe54f982	-0.20798305
115	0xbb18ab35	-0.0023295407
116	0xbde8cb07	-0.113668494
117	0xbe38de92	-0.18053654
118	0x3daeedfe	0.08541487
119	0x3dc149ee	0.09437929
120	0x3e1714fe	0.14754102
121	0x3da02b99	0.078208156
122	0xbedac839	-0.42730883
123	0x3e7966d6	0.24355635
124	0xbe27666f	-0.16347669
125	0xbd791408	-0.06081012
126	0x3e9fd9a6	0.3122074
127	0x3d6f0e59	0.058363292
128	0x3d63a306	0.055575393
129	0xbc9f155d	-0.019419366
130	0x3bc6798d	0.0060569705
131	0x3c933a01	0.017971994
132	0x3d40e0e6	0.04708948
133	0xbd846f39	-0.064665265
134	0x3e4f2616	0.20229372
135	0xbd4b5392	-0.049640246
136	0x3dabca0c	0.08388147
137	0x3ca71c2d	0.020399177
138	0xbbb085f5	-0.0053870627
139	0xbdfba9a8	-0.12288219
140	0xbdc090d7	-0.09402626
141	0x3e1b2dee	0.1515424
142	0xbd21d862	-0.039513
143	0x3e348f6d	0.17632838
144	0xbe24a516	-0.160786
145	0xbc853044	-0.016258366
146	0xbdde62d9	-0.108586974
147	0x3be522a6	0.006992656
148	0xbe38ba0f	-0.18039726
149	0xbde3c276	-0.11121075
150	0x3d508118	0.050904363
151	0x3db42e78	0.08797926
152	0x3c7a8803	0.015291217
153	0x3cf03140	0.02932036
154	0x3d8f6bfb	0.070030175
155	0xbdd5bb43	-0.10436108
156	0x3e164e98	0.14678419
157	0xbe8a10e0	-0.26966
158	0xbe4ab9a9	-0.19797386
159	0xbd855049	-0.06509454
160	0xbc619286	-0.013767844
161	0xbe1e5ef4	-0.15465909
162	0xbcda14d0	-0.026621252
163	0xbe3a6e3e	-0.18206117
164	0xbdf6f963	-0.120592855
165	0xbd697a55	-0.05700143
166	0xbe272447	-0.16322432
167	0xbc98b226	-0.018639635
168	0x3dab588a	0.08366497
169	0xbdfa61b6	-0.12225668
170	0x3b4b5798	0.0031027552
171	0x3ddaa52f	0.106760375
172	0x3e49c7ac	0.19705075
173	0xbd25c785	-0.04047348
174	0x3cd40889	0.025882976
175	0x3e33d0b9	0.1756009
176	0x3c306665	0.0107666
177	0x3dd4bc13	0.10387435
178	0xbe9bdc7c	-0.30441654
179	0xbd2fa8e4	-0.042885676
180	0xbcde7960	-0.027157485
181	0xbd2182a9	-0.039431248
182	0xbce2de13	-0.027693784
183	0xbe19d2b2	-0.1502178
184	0x3d3d42b5	0.046206195
185	0x3cdef851	0.027218016
186	0xbd2ed1a1	-0.042680386
187	0xbd652548	-0.055943757
188	0xbdece9d8	-0.1156804
189	0xbe28c8c3	-0.16482835
190	0xbd285ade	-0.041102283
191	0x3c6bea98	0.014399193
192	0x3db9cc3a	0.09072156
193	0x3d8db97b	0.06920143
194	0xbdd3578e	-0.10319434
195	0xbdea8e8d	-0.11452971
196	0xbef794b9	-0.48355654
197	0xbe0745b5	-0.13210185
198	0xbe77d0ab	-0.24200694
199	0xbe91203f	-0.28344914
200	0x3d7ce045	0.061737318
201	0xbd210bfb	-0.039318066
202	0x3cf14062	0.029449645
203	0xbdbc55b3	-0.09196033
204	0xbdcc7125	-0.09982518
205	0xbdcde2bf	-0.10053014
206	0x3e53ad67	0.20671616
207	0xbdb4242b	-0.08795961
208	0xbcffbeda	-0.031218935
209	0x3d8331ff	0.064060204
210	0xbe3d9fd7	-0.18518005
211	0xbc6cbe09	-0.014449605
212	0x3df186c9	0.11793286
213	0xbe5926bf	-0.21206187
214	0xbde96ff6	-0.11398308
215	0xbdbb2c97	-0.09139364
216	0xbe0d79e8	-0.13816035
217	0x3e19e83b	0.15029995
218	0x3d5f78c9	0.05455855
219	0xbeaa8a3f	-0.33308598
220	0x3e1833c8	0.14863503
221	0x3db63148	0.088961184
222	0x3b8be07d	0.0042687044
223	0xbd025783	-0.03182174
224	0xbe74bfd4	-0.23901302
225	0xbd8e0d09	-0.0693608
226	0x3de8dcc7	0.11370235
227	0xbdf1e3a7	-0.11810999
228	0xbe26dcdf	-0.16295193
229	0xbe7e114e	-0.24811289
230	0x3be01659	0.0068386015
231	0x3d4e7422	0.05040372
232	0xbe2e1b65	-0.17002638
233	0xbe8ad28c	-0.2711376
234	0xbc6d3028	-0.014476813
235	0xbdafc546	-0.08582549
236	0xbe214703	-0.15749745
237	0xbe5b3047	-0.21405135
238	0xbe390d05	-0.18071373
239	0xbe7c07d5	-0.24612363
240	0x3e0fdacf	0.14048313
241	0x3e11530c	0.14191836
242	0xbb4f5ced	-0.0031641081
243	0xbe17bb69	-0.14817585
244	0x3de8f325	0.11374501
245	0xbd6f3480	-0.058399677
246	0x3c9a8e1e	0.018866595
247	0x3e05de19	0.13073005
248	0xbc9302a7	-0.0179456
249	0xbd4ab2bb	-0.049486857
250	0xbd899ae0	-0.06718993
251	0x3e3fb966	0.18723068
252	0xbceff740	-0.029292703
253	0xbe9fef7c	-0.312374
254	0xbd8a1da4	-0.06743935
255	0x3e200203	0.15625767

base.fc1.bias f4 [128]
0	0xbaa45c34	-0.0012539686
1	0x3e85f526	0.26163596
2	0xbddbed77	-0.10738652
3	0xbdd3221f	-0.103092425
4	0x3dce79e3	0.10081842
5	0xbdd4af71	-0.10385025
6	0xbe97bedb	-0.296378
7	0x3d2b615e	0.041840903
8	0xbded4fc2	-0.11587478
9	0xbed0d829	-0.40789917
10	0x3d0bf6ca	0.034170903
11	0x3df39a63	0.11894681
12	0xbdf5fc6a	-0.12011035
13	0x3e2c944b	0.16853444
14	0xbe34fe61	-0.17675163
15	0xbd98386c	-0.074326366
16	0xbb84a593	-0.0040480583
17	0x3be5a5a9	0.0070082736
18	0x3db62ca3	0.088952325
19	0xbb94c14c	-0.0045396443
20	0xbd8354d8	-0.06412667
21	0xbce03e0c	-0.027373336
22	0xbec6dacb	-0.388388
23	0x3e452a9f	0.1925454
24	0xbdc096fc	-0.09403798
25	0xbde0ae6e	-0.1097077
26	0xbc4f4c9d	-0.012652543
27	0x3d499e74	0.04922338
28	0xbe258678	-0.16164577
29	0xbe97255e	-0.29520696
30	0xbe058dad	-0.13042326
31	0x3e6caf16	0.23113665
32	0x3db6bd49	0.08922822
33	0x3e6c7472	0.23091295
34	0xbe5318c9	-0.20614924
35	0x3e60b7ca	0.2194511
36	0x3e8362cc	0.25661314
37	0x3c8573aa	0.016290504
38	0x3daa11e6	0.08304195
39	0xbe04c7e8	-0.12966883
40	0xbe06caa7	-0.13163243
41	0x3e230fce	0.15923998
42	0x3e9d056b	0.30668196
43	0xbdef11f1	-0.11673344
44	0xbdb8601b	-0.09002706
45	0xbe7b1b70	-0.24522185
46	0x3ce0d1d1	0.027443798
47	0x3ce7270b	0.02821686
48	0x3c5291a5	0.012852107
49	0xbe24f024	-0.16107231
50	0xbd2e9c32	-0.04262943
51	0xbdc85638	-0.0978207
52	0x3df89c26	0.12139158
53	0xbd0c2a1c	-0.034219846
54	0x3ce176f4	0.027522542
55	0x3d79c639	0.060980055
56	0x3e0373e8	0.12837183
57	0x3ca6fe57	0.02038495
58	0x3e8cf849	0.27533177
59	0x3cbc9a71	0.023022862
60	0x3e2c242b	0.16810672
61	0x3e8961ce	0.26832432
62	0xbe14ebd2	-0.14543083
63	0x3d936359	0.071966834
64	0xbe876f1f	-0.26451966
65	0xbde04183	-0.10949995
66	0xbe16f91a	-0.14743462
67	0xbddad762	-0.10685612
68	0xbe5e5e1e	-0.2171559
69	0xbe9d39c7	-0.30708143
70	0x3e5380b2	0.20654562
71	0x3cb099b3	0.021557664
72	0xbe6ae7de	-0.22940013
73	0x3e94a655	0.2903315
74	0xbec9e341	-0.39431193
75	0xbecad44e	-0.396151
76	0x3e060e56	0.13091406
77	0x3bbabefc	0.0056990366
78	0xbae14f4d	-0.0017189771
79	0x3d33c149	0.043885503
80	0x3d449b96	0.04799994
81	0xbd3cec90	-0.04612404
82	0x3aef8d5d	0.0018276382
83	0xbd9a923c	-0.07547423
84	0x3d7903f6	0.060794793
85	0x3e4669b8	0.19376266
86	0xbd71574c	-0.058921143
87	0xbda1a41c	-0.078926295
88	0x3c0fa83f	0.00876814
89	0xbda0ff03	-0.078611396
90	0xbd88160b	-0.06644829
91	0xbd96e6d6	-0.07368247
92	0xbe90179d	-0.28143016
93	0x3de09432	0.10965766
94	0x3dfef05c	0.12448189
95	0x3e52d063	0.20587306
96	0x3e483e42	0.19555
97	0xbdbdb6b3	-0.09263363
98	0xbdb05b0a	-0.08611114
99	0x3a80ffed	0.0009841897
100	0x3e39acfe	0.18132398
101	0xbd89001f	-0.06689476
102	0xbd140696	-0.036139093
103	0xbe0965dd	-0.13417764
104	0x3e8bd3b1	0.27309945
105	0x3d8680a2	0.065675035
106	0xbe5b48e4	-0.21414524
107	0x3e470579	0.19435681
108	0x3cf70b6a	0.03015681
109	0x3d04023b	0.03222869
110	0x3d8e448e	0.069466695
111	0xbe0f9466	-0.14021453
112	0xbe415e2e	-0.18883583
113	0x3a3099a7	0.0006736763
114	0x3c9ee66f	0.019396989
115	0xbe062208	-0.1309892
116	0x3d352d11	0.04423243
117	0x3e47091d	0.1943707
118	0x3dec8fe5	0.11550883
119	0x3dd29823	0.10282924
120	0xbc6af802	-0.014341356
121	0x3e497917	0.19675098
122	0x3d8f671f	0.07002091
123	0xbd90f279	-0.07077498
124	0x3db00269	0.0859421
125	0x3d622dec	0.055219576
126	0xbcbe2ee2	-0.023215715
127	0xbea5b043	-0.3236104

base.value_head.weight f4 [1, 128]
0	0x3b13c05e	0.002254508
1	0xbe829696	-0.25505513
2	0xbbd39c80	-0.0064578652
3	0xbb107c8a	-0.0022046887
4	0x3b2e0363	0.0026552312
5	0xbbd58dce	-0.0065171486
6	0x3a1aaf87	0.00059007894
7	0xba9a8b5e	-0.0011790802
8	0xbcf8018b	-0.030274173
9	0x3d725035	0.059158523
10	0xbaa11f57	-0.0012292665
11	0x3af56de1	0.0018724763
12	0xbd10b87a	-0.03533218
13	0x3b88223f	0.004154473
14	0x3e1f47b0	0.1555469
15	0xba8606a8	-0.0010225372
16	0xbb80b36f	-0.00392764
17	0x3bb8f1be	0.0056440523
18	0xbcc15cfd	-0.02360391
19	0xbb8cab1f	-0.00429286
20	0x3b1170c3	0.0022192455
21	0xbc014170	-0.007889137
22	0x3e5b9a06	0.21445474
23	0xbca77674	-0.020442225
24	0x3b65276d	0.0034966127
25	0xbcaf4d3e	-0.021399137
26	0xba3b618f	-0.0007148021
27	0x3c5dc18b	0.013534914
28	0xbb04f71f	-0.0020288897
29	0x3c044374	0.008072723
30	0xbc669d21	-0.014075548
31	0xbe83bcaf	-0.25729892
32	0x3b1fafb8	0.002436621
33	0x3ba38497	0.004990171
34	0xbb59e5a4	-0.0033248449
35	0xbec6facf	-0.38863227
36	0xba36b708	-0.0006970023
37	0x3a15ce61	0.0005714652
38	0xbcdbe8fa	-0.02684449
39	0xbcc14d8f	-0.023596553
40	0xbba20f5a	-0.0049456777
41	0xbd39a546	-0.045323633
42	0xbda1cb62	-0.0790012
43	0x3c8a0b23	0.016851014
44	0x3bf2ba24	0.0074074436
45	0x3b2c0f3a	0.0026254193
46	0x3c5002b5	0.012695958
47	0x3cb48bbf	0.022039292
48	0xba06d7e5	-0.0005143865
49	0xbb387dc7	-0.002815114
50	0xba69d709	-0.00089202874
51	0xbb3601ab	-0.002777199
52	0xbb43f222	-0.002989896
53	0xbcf910bd	-0.03040349
54	0xba8a7008	-0.0010561952
55	0x3b99673c	0.004681496
56	0x3b65f45b	0.0035088274
57	0xbc86d771	-0.016460152
58	0xbba90bb0	-0.005158864
59	0xbb2d0aa1	-0.002640404
60	0xbe86bf0c	-0.26317632
61	0xbe9df997	-0.30854484
62	0x3bb7535c	0.005594654
63	0x3b61aa18	0.003443366
64	0xbc2d00fe	-0.010559319
65	0xbba56ccb	-0.0050483695
66	0x390c57aa	0.00013384098
67	0x3ba41b5d	0.005008145
68	0xba23b8a6	-0.00062454713
69	0x3d8210f0	0.06350887
70	0xbbaaddc0	-0.005214423
71	0x3abd2755	0.0014431278
72	0x3a0e2ae1	0.00054232596
73	0xbbd71e25	-0.006564873
74	0x3e84f625	0.25969043
75	0x3e5b5f68	0.21423113
76	0x38e6b10a	0.00011000231
77	0x3bc707be	0.006073921
78	0x3c832e71	0.016013356
79	0xbbe980eb	-0.007125964
80	0x3bc1a184	0.0059091467
81	0xbca041ae	-0.019562569
82	0x3c8bdf82	0.01707435
83	0xbc68a9e0	-0.014200658
84	0xbcafcda2	-0.021460358
85	0xbe6f9f34	-0.23400575
86	0xba51b0a0	-0.00079990365
87	0x3bf263d7	0.0073971557
88	0xb8798bc7	-5.9496404e-05
89	0xbb414959	-0.0029493182
90	0x3b846d5a	0.004041356
91	0x3b3eaf7e	0.00290963
92	0x3e0a4206	0.13501748
93	0x3a966b89	0.001147614
94	0x3bee017a	0.0072633596
95	0xbda1bff8	-0.07897943
96	0xbc0611c9	-0.008182951
97	0xbcaff59c	-0.02147942
98	0x3ba5e6c8	0.0050629117
99	0x3b833618	0.004004251
100	0xb84a78cd	-4.8273057e-05
101	0xbbad66e3	-0.005291806
102	0xbc70b7b3	-0.014692235
103	0x3c4445f1	0.011979566
104	0xbc83287f	-0.016010521
105	0xbd6a8f99	-0.05726585
106	0x3c709f28	0.014686383
107	0xb9070866	-0.00012877732
108	0x3ba09c21	0.0049014245
109	0x3bb29668	0.0054500587
110	0xbc9ea6d7	-0.019366665
111	0x3c897148	0.01677765
112	0xbde2d66e	-0.110760555
113	0x39b5020b	0.00034524532
114	0x3c496a0b	0.012293349
115	0x3b2e3433	0.0026581406
116	0xb98606d9	-0.00025563574
117	0xbe992498	-0.2991073
118	0xbbbcadbf	-0.005758017
119	0x3afaa048	0.0019121254
120	0x3b5ae4aa	0.0033400455
121	0xbc94db85	-0.018171081
122	0x3a194e68	0.000584817
123	0xbb59b76e	-0.0033220905
124	0x3abb9347	0.001431086
125	0xbc3b0c4d	-0.011416507
126	0x3be6b1b2	0.007040226
127	0x3e0e0e1a	0.13872567

base.policy_head.weight f4 [128, 128]
0	0x3df47243	0.11935856
1	0x3db0f31c	0.086401194
2	0x3dc92d3e	0.098230824
3	0xbdf98768	-0.1218403
4	0x3dc12662	0.09431149
5	0xbe3fb6d6	-0.1872209
6	0x3e2ec3c9	0.17066874
7	0x3e2fe267	0.1717621
8	0xbc19f052	-0.009395676
9	0x3e9319b3	0.28730544
10	0x3e1073e5	0.1410671
11	0x3dc44aaa	0.095845535
12	0xbe5e0b46	-0.21683988
13	0x3df33376	0.1187505
14	0x3eafe3a8	0.34353375
15	0x3e0d3114	0.13788253
16	0xbcdeccfe	-0.027197357
17	0x3e5e7ed0	0.21728063
18	0xbe7ac9c3	-0.24491028
19	0xbe459a9c	-0.1929726
20	0x3d98b427	0.07456236
21	0x3eb36f03	0.35045633
22	0xbc848149	-0.01617493
23	0x3b231ef0	0.0024890266
24	0xbe50cf9f	-0.20391701
25	0xbe68c974	-0.22733098
26	0xbeae5897	-0.34051964
27	0x3d6a20b1	0.057160083
28	0xbe5d8b9c	-0.21635288
29	0xbe4ae0f9	-0.19812383
30	0x3d85a400	0.06525421
31	0xbe043539	-0.12910928
32	0xbe18badc	-0.14915031
33	0xbd9eed48	-0.077601016
34	0x3e1742db	0.14771597
35	0x3c75ea2b	0.015009443
36	0xbe5601ef	-0.20899175
37	0x3d9d7efd	0.07690237
38	0x3d6526d4	0.055945233
39	0xbdc58d36	-0.096460745
40	0x3d69cfee	0.057083063
41	0xbdd74f40	-0.105131626
42	0xbe56baab	-0.20969646
43	0xbd6d747a	-0.05797241
44	0x3e1bcafc	0.15214151
45	0x3e840763	0.25786886
46	0xbde59b11	-0.11211217
47	0x3d35fe62	0.04443205
48	0xbd010447	-0.03149822
49	0xbd3234f6	-0.04350754
50	0x3e0e04fa	0.13869086
51	0x3e373459	0.17891063
52	0xbde65aa7	-0.11247759
53	0x3e3f0a48	0.18656266
54	0xbd0a7f13	-0.033812594
55	0x3dbbab2e	0.09163509
56	0xbcd60503	-0.026125437
57	0xbc7deed3	-0.015498835
58	0x3e42597c	0.18979448
59	0x3d46ff57	0.048583355
60	0xbd571fe4	-0.052520648
61	0x3e17d9d5	0.1482919
62	0x3d7d6c7d	0.06187104
63	0xbdee3afc	-0.11632344
64	0x3d3ffd98	0.046872705
65	0xbebae007	-0.36499044
66	0xbe2cf2e8	-0.16889536
67	0xbdc74beb	-0.09731277
68	0x3dbf0a7d	0.09328172
69	0xbc38bb13	-0.011275071
70	0xbe7f7a87	-0.24949084
71	0xbe53b857	-0.20675789
72	0xbdbcca8f	-0.092183225
73	0x3e5f4b24	0.21806008
74	0xbd6855d3	-0.056722473
75	0xbd0bbd54	-0.034116104
76	0x3da6c15f	0.08142351
77	0x3d182919	0.03714857
78	0xbcbf8202	-0.023377422
79	0xbd3bdcfc	-0.045865044
80	0xbe44b631	-0.19210126
81	0xbccdf870	-0.025142878
82	0xbd783d8c	-0.06060557
83	0xbca4d5c8	-0.02012147
84	0x3e204088	0.15649617
85	0x3e2c519a	0.16828004
86	0xbde5a12f	-0.11212384
87	0xbd1c00f1	-0.038086835
88	0x3e5b6f98	0.21429288
89	0xbc552258	-0.0130086765
90	0x3e07a467	0.13246308
91	0x3d477606	0.04869654
92	0x3df4facd	0.11961899
93	0x3d5e0bf4	0.05421062
94	0xbe809748	-0.25115418
95	0xbd2d7b47	-0.042353895
96	0xbd29cdb6	-0.041455947
97	0xbda6df67	-0.08148079
98	0xbe349744	-0.17635828
99	0x3e143972	0.14475039
100	0x3df8aa00	0.121418
101	0x3e66d394	0.22541648
102	0x3dfb3fc3	0.12268021
103	0xbe90cf1c	-0.28283012
104	0xbeac6b10	-0.33675432
105	0x3b8e8233	0.004349017
106	0x3d3b98fd	0.045800198
107	0x3d9adfa4	0.07562187
108	0x3d2bf50d	0.041981746
109	0x3e222687	0.1583501
110	0xbe04db21	-0.12974216
111	0x3d2e8440	0.042606592
112	0xbc8a6795	-0.016895095
113	0xbb83e8ca	-0.0040255534
114	0x3d048fba	0.03236363
115	0xbdc10737	-0.09425204
116	0x3de52f93	0.11190715
117	0x3da70f09	0.081571646
118	0xbe4db91b	-0.20090143
119	0xbe2f1182	-0.17096522
120	0xbc959f73	-0.018264508
121	0xbdb17066	-0.086640164
122	0xbd48d0c4	-0.04902722
123	0xbb70910e	-0.0036707553
124	0x3bb535ce	0.0055300957
125	0x3d94f2aa	0.07272847
126	0xbe26d5cb	-0.16292493
127	0xbcd2b416	-0.025720637
128	0x3d6b37c0	0.057426214
129	0x3e052b6c	0.13004845
130	0x3dacecf3	0.08443632
131	0xbd432f62	-0.04765261
132	0x3d7225fa	0.05911825
133	0xbaaded8c	-0.0013269647
134	0x3de4fb81	0.11180783
135	0x3c17c739	0.009263807
136	0x3dc5ddb8	0.0966143
137	0x3db281c3	0.08716156
138	0xbe53bdbf	-0.20677851
139	0xbe53afd5	-0.20672543
140	0x3e1af223	0.1513143
141	0xbe25d8b7	-0.16195951
142	0x3ec841ba	0.39112645
143	0x3ea69927	0.3253872
144	0xbe17dea4	-0.14831024
145	0xbd8ec519	-0.06971187
146	0xbdba3223	-0.09091594
147	0xbe52bb51	-0.20579268
148	0xbd610ce8	-0.05494395
149	0xbd20ebec	-0.039287493
150	0x3e1fdd71	0.15611817
151	0x3e1273ff	0.14302061
152	0xbda10192	-0.07861628
153	0x3e3a7ffd	0.18212886
154	0x3ce6570f	0.028117685
155	0xbe0c0f86	-0.13677797
156	0x3e76b0e8	0.24090922
157	0x3ee5d1c6	0.44886607
158	0x3d60b0b0	0.054856002
159	0x3dc1e94c	0.09468326
160	0xbe58630b	-0.21131532
161	0xbe07d9a9	-0.13266625
162	0xbc6de3b3	-0.01451962
163	0x3e4be581	0.19911768
164	0xbd593706	-0.05303099
165	0x3e3e2d23	0.18571906
166	0xbd8268d5	-0.063676514
167	0x3d89beb0	0.06725824
168	0xbe2e17c1	-0.17001249
169	0x3deed9ef	0.11662661
170	0x3defe395	0.1171333
171	0x3d55d44d	0.05220442
172	0x3c04dc3c	0.008109149
173	0xbe654800	-0.22390747
174	0x3d2bfa3a	0.04198668
175	0x3d8712bb	0.065953694
176	0xbc380d73	-0.011233675
177	0xbdf1a204	-0.1179848
178	0xbe87049d	-0.26370707
179	0xbe61b9bd	-0.2204351
180	0xbd8ff8d9	-0.07029886
181	0xbea23d03	-0.31687173
182	0x3ccdd804	0.025127418
183	0x3d4a3bd1	0.04937345
184	0x3d6418c2	0.055687673
185	0xbe5fa6e7	-0.21841012
186	0x3da34b5a	0.079733565
187	0xbdfe951e	-0.124307856
188	0xbe120f55	-0.14263661
189	0xbde57ee5	-0.11205844
190	0x3d5fb9cf	0.05462056
191	0x3dba71b3	0.09103718
192	0xbe2a5d70	-0.16637206
193	0x3bc89ecb	0.006122445
194	0xbe707484	-0.23481947
195	0x3d459a3a	0.048242785
196	0x3ea564e1	0.32303527
197	0xbe18c8ae	-0.14920303
198	0xbde8ee21	-0.113735445
199	0xbdb10c95	-0.08644978
200	0xba401658	-0.0007327548
201	0xbe26620f	-0.16248344
202	0x3db10f4c	0.08645496
203	0xbe22137c	-0.15827745
204	0xbe16ab41	-0.14713766
205	0xbd8323f7	-0.06403344
206	0x3e3a30db	0.181827
207	0xbe66a05b	-0.22522108
208	0x3dbfbefc	0.09362599
209	0x3d02711b	0.031846147
210	0x3eb1eb0f	0.34749648
211	0xbd63a6a0	-0.055578828
212	0xbde49862	-0.11161877
213	0x3c9e5b7d	0.019330734
214	0xbc286697	-0.010278366
215	0xbe1e7acd	-0.15476532
216	0x3de1b831	0.1102146
217	0xbce5315d	-0.02797764
218	0x3cbf6da6	0.023367714
219	0x3d7590c7	0.059952524
220	0xbe578d95	-0.21050103
221	0xbdc8a312	-0.09796728
222	0x3d630710	0.055426657
223	0x3d632257	0.05545267
224	0x3e66bb07	0.22532283
225	0x3e0494b5	0.12947352
226	0x3e0ee63a	0.13955012
227	0xbd9cc853	-0.07655396
228	0x3db7e812	0.08979811
229	0x3e81c930	0.25348806
230	0xbe14c961	-0.14529945
231	0x3e886414	0.26638854
232	0x3db23f87	0.08703523
233	0x3d3cad98	0.04606399
234	0xbe3ce555	-0.18446858
235	0xbdc7caab	-0.09755453
236	0xbdcf767c	-0.10130021
237	0x3d924a66	0.071430966
238	0xbdf61176	-0.12015049
239	0xbd5c8dc5	-0.05384614
240	0x3db4398e	0.0880004
241	0x3ccc3af2	0.024930451
242	0x3df2418c	0.11828908
243	0xbec38568	-0.38187718
244	0x3de33951	0.110949166
245	0xbcd34b33	-0.025792694
246	0x3e48c61d	0.19606824
247	0x3ebc933f	0.3683109
248	0x3e91855b	0.28422055
249	0x3deb78e2	0.11497666
250	0x3e58f681	0.21187784
251	0x3e08a66f	0.1334474
252	0xbda3301d	-0.07968161
253	0x3e8e0a8e	0.27742428
254	0x3ed04f88	0.40685678
255	0x3d43bbd6	0.047786556

base.policy_head.bias f4 [128]
0	0x3b7a848b	0.0038225974
1	0xbd5a3507	-0.053273227
2	0x3cc5d6f6	0.024150353
3	0xbda789e1	-0.08180595
4	0x3cfcaf12	0.030845199
5	0xbd24fd21	-0.040280465
6	0xbd5a8397	-0.05334815
7	0x3c476a14	0.012171287
8	0x3d6b0577	0.05737826
9	0x3d20d2cc	0.03926353
10	0xbd5ffd68	-0.054685026
11	0xbd4b7c69	-0.049679194
12	0xbd856f4a	-0.06515367
13	0xbdc688bd	-0.096940495
14	0xbd6d15d9	-0.057882164
15	0xbcbee9b6	-0.023304801
16	0xbd0260c8	-0.03183058
17	0x3cea70a4	0.028618164
18	0x3ca90ea4	0.020636864
19	0x3cfff99f	0.031246958
20	0x3d8d90a7	0.06912356
21	0xbd30da3d	-0.04317688
22	0xbc36fca4	-0.011168633
23	0xbd0eb864	-0.034843817
24	0x3d9e2296	0.077214405
25	0x3db4884b	0.08815058
26	0x3dabd38c	0.08389959
27	0xbd08bfe7	-0.033386137
28	0xbd669ca1	-0.056301717
29	0x3d9d11ae	0.07669388
30	0x3d1790d3	0.03700335
31	0x3bfdefd4	0.007749537
32	0x3c89934e	0.016793873
33	0x3dba96ac	0.0911077
34	0xbcbd1647	-0.023081912
35	0xbc2b7313	-0.010464448
36	0xbddc7fd4	-0.10766569
37	0xbce8cfd3	-0.02841941
38	0x3db725a1	0.08942724
39	0xbb90c2ae	-0.004417739
40	0xbc03c436	-0.008042386
41	0xbd29f4bf	-0.041493174
42	0x3ce00371	0.027345391
43	0x3c32de31	0.010917232
44	0x3d9cf22b	0.076633774
45	0xbd96fcca	-0.073724344
46	0xbce0bd84	-0.027434118
47	0x3cbff54a	0.023432393
48	0xbd60d3ee	-0.054889612
49	0xbda0b050	-0.07846129
50	0x3d2f739d	0.042834867
51	0xbd96f22f	-0.073704116
52	0x3d04ee6e	0.032453947
53	0xbc5560aa	-0.013023535
54	0x3c1aa4b6	0.009438684
55	0x3c822852	0.015888367
56	0x3aeecdf6	0.001821934
57	0xbdb5627a	-0.088566735
58	0xbd9a8b61	-0.07546116
59	0xbcceb42d	-0.025232399
60	0xbb570896	-0.0032811514
61	0x3b802901	0.003911138
62	0xbc13783c	-0.009000834
63	0xbd73b633	-0.05949993
64	0xbc986aed	-0.018605674
65	0x3bfbb0ce	0.007680989
66	0x3cbf3481	0.023340466
67	0xbcbffdfd	-0.02343654
68	0xbd0ca4db	-0.034336906
69	0x3e00361b	0.1252064
70	0x3c22fe31	0.009948299
71	0x3db4f686	0.08836083
72	0x3dfeb74a	0.12437303
73	0xbb9d63b0	-0.0048031434
74	0xbe11ac32	-0.14225844
75	0x3c30cb0a	0.010790596
76	0x3c3d71e9	0.011562803
77	0xbd916fc2	-0.07101394
78	0xbcb596dc	-0.022166662
79	0x3c049c59	0.008093917
80	0xba525af1	-0.00080244156
81	0x3d7df0ae	0.06199711
82	0xbd907b72	-0.07054795
83	0xbc8f463d	-0.017489547
84	0xbd125579	-0.035726044
85	0xbd3c3768	-0.045951277
86	0xbd4c769b	-0.0499178
87	0xbbd814f1	-0.0065942933
88	0x3d9b4052	0.075806275
89	0xbd02646f	-0.031834062
90	0xbdd879ab	-0.10570081
91	0x3d48cb27	0.049021866
92	0xbd15abb8	-0.036540717
93	0xbdb37600	-0.08762741
94	0xbc94c849	-0.01816191
95	0x3d801ba0	0.06255269
96	0xbd295f95	-0.04135092
97	0x3d26bdb7	0.04070827
98	0x3cc6d94c	0.024273537
99	0xbcfc180a	-0.030773181
100	0x3d2e930b	0.0426207
101	0x3b4ef354	0.003157814
102	0xbd93d2f5	-0.07217971
103	0xbc7d895b	-0.015474643
104	0xbd6783de	-0.056522243
105	0x3d7fcc70	0.062450826
106	0xbd880b73	-0.06642809
107	0x3beebce2	0.0072857
108	0x3dcb7245	0.099339046
109	0x3c0143d0	0.007889703
110	0xbdb39557	-0.08768719
111	0x3d18e9a0	0.037332177
112	0x3ba38c41	0.004991085
113	0xbc96f6de	-0.018428262
114	0x3c488df9	0.01224088
115	0xbc7f5247	-0.015583581
116	0x3d434364	0.04767169
117	0xbc389284	-0.011265401
118	0xbb31a2d5	-0.0027105112
119	0xbc0c2879	-0.008554571
120	0xbcf851dc	-0.030312471
121	0xbbf737b4	-0.007544482
122	0x3c3e4f6a	0.0116156135
123	0xbd49dd96	-0.049283586
124	0x3d6efe59	0.058348034
125	0x3d4870e9	0.048935805
126	0xbd657525	-0.05601992
127	0xbc8c2f1f	-0.017112313
