weights/weights-200iter-aggressive.pt (torch_old, 230773 bytes, 13 tensors)

base.base.0.weight f4 [32, 17, 3, 3]
00000000: 055f 9ebe 43a1 573d 44ee 5bbd 88d7 903d
00000010: ee01 c33c 1899 edbc 90e8 513d 6a88 00bd
00000020: d651 d1bd 68af a3bd 3b45 2e3e 15a2 afbe
00000030: ec7d a3bf bec7 76be 1dc9 873e b583 1cbe
00000040: ae36 0c3e 1cb9 a3bd a2ff 99be 63c5 eabd
00000050: 959f 8cbd 8f7d 90bf 0380 97bc 2fad 463e
00000060: 483e a9bc 35ec 9f3e 894e d3bd ebc0 8bbe
00000070: 44df 353e 9b70 7cbf e683 9cbe 5476 b8be
00000080: 7fca 8eba aab6 a0be 8907 f8be 12d9 02be
00000090: e64c ce3d c22f 9e3e aa66 3f3f 505b 303f
000000a0: 7cc9 ccbe 453d f33d 45cb 6d3e c4c1 25bc
000000b0: a5ac f33e f0b8 6dbd 971f adbd 1f53 763e
000000c0: a682 9a3d cae8 05be 667b 2a3d a464 0cbe
000000d0: eb99 90bd 6dc0 91bd 4599 d6bc 80f1 31bf
000000e0: 2e7a 9c3e 9132 2b3f 3d31 f23d feaf dfbc
000000f0: d198 54be 6cbf ae3e e0ce f93d 0cfb 1dbe
00000100: 2f15 383e 0868 debc 39ea 9b3e 0588 e13d
00000110: 7966 223e 1778 9ebd 30ff cb3d b37d bdbe
00000120: 1a1b 173d ac5c b63e b281 bcbe 9180 cdbe
00000130: 84fa 0ebe 580c cdbe f9c0 163e 6d18 363e
00000140: c01c 70be 03d4 a5be d45f 1dbe ce25 c7bd
00000150: 6867 c0be 0d38 70be 4ff8 0b3e 5713 ef3e
00000160: 3d84 c73e 5618 5e3d bff5 adbd 0175 4a3d
00000170: 5b8a bd3e 628e 8dbd ab05 d4bd e6e4 253e
00000180: 7c5c adbe 6ce6 df3d 35eb a53e 09bb 2c3d
00000190: c74a 983e 60f8 333e 25d5 efbc b60f 83bd
000001a0: b5da 1abe a5f7 a73d 91b0 b1bd 72d6 e43c
000001b0: ed61 2f3e 48b2 11be 56c8 2c3e 273f a9bb
000001c0: f092 61bd 192b 0f3d c722 dd3d 9f06 73be
000001d0: b440 103c f8ca 87bd b710 d03d 56de 163d
000001e0: 2e6e 90bd 2d6f fc3d 0ec7 36be 9c6a 7abd
000001f0: 8781 f93a 3735 ff3d 8865 33be 9faa 263d
00000200: eae6 f53c 162a 14bc 3a07 0ebe 3303 a13d
00000210: 8eb9 f83d 238e 483e 1f87 423e 36ba ca3d
00000220: 4e4c 32be 4cf1 72bd cf0d aebd 3241 ae3d
00000230: 48ea ecbc 4bf8 6bbd 77cf f2b9 5ff6 33be
00000240: 2c19 f13d 6582 7b3e 6f1e be3d adf0 293e
00000250: 2498 0dbe d0cc 273d 46a3 99bd 661e be3d
00000260: 0d44 aebc d73d b8be db22 47be bccd bdbe
00000270: bf5c 23bd 1067 cc3d 83de 50be 2b11 8d3c
00000280: c4d7 ab3d bcd9 80be 8227 46be b025 d5be
00000290: 9a09 abbd a64c 10be 846a 8cbe b63d 48be
000002a0: 312f 8abc 972d 27be c8f2 17be 9bca bfbe
000002b0: d60d debe 82ac e3bd 40a7 253e 27a4 8bbd
000002c0: 3ee0 813d 37d5 8fbe 7da8 fabe 0838 e2bd
000002d0: 1953 06be d188 38be 64e0 3ebe 3597 c43e
000002e0: f381 9d3e fba5 563d 267d 0e3f 6855 bd3d
000002f0: dbbb 9abe c789 d9bc e1fc 2b3d 6d72 babe
00000300: 35fa b8bf 6e00 e03d 0ec4 bc3e ccb9 5ebf
00000310: 16ed e0be 0342 91be 52cb 353e 673e 913d
00000320: 878d 0e3f 3c2f c0bd 9935 c43c eae1 953e
00000330: 0b56 35be 7b47 9cbe 2e63 fd3b 9053 33be
00000340: f792 d9be bd9d d73d 49f5 6bbf 7162 1abe
00000350: 1344 08be d926 21bf 1888 92bd 0991 deba
00000360: 128e 8ebd 85da 2cbe ee6d 963d 62ce 423c
00000370: f760 e63d 4c29 8fbe 126e b6be 0c89 8d3c
00000380: b289 a33d c0ab 9c3d 9d66 78be f727 863e
00000390: 1a68 8e3e 5766 6d3e 2fbf 993d 7dd5 2e3e
000003a0: 5d10 8b3e 75ab b1be bb83 91bd 10f1 c7be
000003b0: 0f4a 2cbd 32ef 883e 67bd b93c 3020 1f3e
000003c0: cbd5 eabb d308 d53d 77d7 3bbd 080d 45bd
000003d0: c92c 093e 766f 903e d295 69be 4913 02be
000003e0: 08ef 303e 6ab3 1bbd 63d8 56be 5ac1 9b3e
000003f0: 9f50 19be 49bd 4f3e 388c 6d3e 0587 bd3d
-0.3093187 0.052644026 -0.053694025 0.07072359 0.023804631 -0.029003665 0.05124718 -0.031380095
-0.10220687 -0.079924405 0.17018597 -0.34303346 -1.2772803 -0.24099633 0.26520625 -0.15284617
0.13692734 -0.07994291 -0.30077845 -0.1146343 -0.06866375 -1.1288317 -0.018493658 0.19402002
-0.02065958 0.312349 -0.10317714 -0.27295622 0.1776095 -0.9860932 -0.3056938 -0.36027777
-0.0010894089 -0.31389362 -0.4844325 -0.12778118 0.10073261 0.3089581 0.7476603 0.6888933
-0.3999747 0.118769206 0.23222072 -0.010116998 0.47592655 -0.0580377 -0.08453291 0.24055146
0.075444505 -0.13077083 0.04162159 -0.13710266 -0.070606075 -0.071167804 -0.026196131 -0.69509125
0.30561966 0.66874033 0.11825798 -0.0273056 -0.2076142 0.34130418 0.121976614 -0.15427798
0.17976831 -0.027149215 0.30452135 0.11012272 0.15859403 -0.07737749 0.099607825 -0.37009963
0.03689108 0.35617578 -0.368177 -0.4013715 -0.13962752 -0.4004848 0.1472205 0.17782755
-0.23448467 -0.32388315 -0.15368587 -0.097240075 -0.37578893 -0.23458882 0.13668941 0.46694443
0.38968077 0.054222427 -0.08494138 0.04942799 0.3701962 -0.06911923 -0.103526436 0.16200599
-0.33859622 0.10932621 0.3240601 0.042170558 0.2974455 0.17575216 -0.02927644 -0.06399481
-0.15122493 0.08201531 -0.086762555 0.027934287 0.171272 -0.14228165 0.16873297 -0.005164999
-0.05507177 0.03495321 0.10797649 -0.23732994 0.008804489 -0.0663051 0.10159438 0.03683313
-0.07052265 0.123258926 -0.17849371 -0.061136827 0.0019035795 0.12461322 -0.175192 0.04069006
0.030017335 -0.009043237 -0.13869944 0.07861938 0.12144767 0.19585471 0.18996857 0.09898798
-0.1741192 -0.05931215 -0.084987275 0.08508529 -0.028920308 -0.057609838 -0.0004631241 -0.17574452
0.11772379 0.2456146 0.092831485 0.16595717 -0.13827568 0.04096681 -0.07501845 0.09283142
-0.021272684 -0.3598468 -0.1944689 -0.37071025 -0.03988337 0.09980595 -0.20397381 0.0172201
0.083907634 -0.25166118 -0.19351009 -0.41630316 -0.08351441 -0.14091739 -0.27425015 -0.19554791
-0.016868206 -0.16325985 -0.14838707 -0.37459263 -0.4336993 -0.11116888 0.16177082 -0.06818419
0.06341599 -0.28092358 -0.4895667 -0.11045843 -0.13117637 -0.18020941 -0.18640286 0.38396612
0.30763206 0.052404385 0.5565971 0.092448056 -0.30221447 -0.026554955 0.04198921 -0.36415425
-1.4451357 0.10937582 0.36868328 -0.87002254 -0.43930882 -0.28370675 0.17753342 0.070919804
0.55684704 -0.09384009 0.023951339 0.2927392 -0.17708604 -0.30523285 0.0077327704 -0.17512345
-0.42494938 0.10528133 -0.9217115 -0.15076615 -0.13307218 -0.629499 -0.07154864 -0.001698048
-0.069606915 -0.16880234 0.07345186 0.011890026 0.11248963 -0.27961195 -0.35630852 0.017277263
0.07985248 0.07649946 -0.24257894 0.26202366 0.27813798 0.23183571 0.075071685 0.17073627
0.27160922 -0.34701124 -0.07105204 -0.39051104 -0.042062815 0.26744992 0.022673322 0.15539622
-0.0071665994 0.10402074 -0.04585978 -0.04810813 0.1339599 0.28210038 -0.22811058 -0.12702669
0.17278683 -0.0380129 -0.20980982 0.30420953 -0.14972161 0.2028705 0.2319802 0.092542686

base.base.0.bias f4 [32]
00000000: b468 7bbd b4cf 14bc 0f80 413a 009c 58bc
00000010: e6c9 b4bd 3928 11be ba8b b6bd f385 ffbb
00000020: 3bb4 99bc d782 adbb 56f0 22be 3715 a2bb
00000030: c7c4 4bbe 9bac e7bd b5bc 86bd 2b0e c83e
00000040: f20b 23bd 27fc e1bc 7bda 18bd 5765 9cbe
00000050: 0d68 febc c0a6 c9bd c805 53bb 3a75 16be
00000060: 74f5 e7bd 963e 443d e3c3 9fbc 0d00 1ebd
00000070: 1061 32be 651b 9abd 1f9e 8abe 65cb b5bd
-0.06137915 -0.009082723 0.0007381448 -0.013220787 -0.088275716 -0.141755 -0.089133695 -0.0077979504
-0.018762698 -0.0052951383 -0.15911993 -0.0049463767 -0.19899283 -0.11312219 -0.06578962 0.3907331
-0.039806314 -0.027586056 -0.037317734 -0.30546066 -0.031055475 -0.09846258 -0.003219949 -0.14693156
-0.11326113 0.04791125 -0.019502586 -0.038574267 -0.17419839 -0.07524756 -0.27073762 -0.08876685

base.base.2.weight f4 [32, 32, 3, 3]
00000000: 7284 ec3d 2a18 03be cf31 2abe be25 25be
00000010: 7391 d9be c448 17be 376f a13c a922 11be
00000020: 5f71 68bd e5b5 38be 9e6d 24bc 0617 5e3e
00000030: f9b8 c2bd c2fc 143c ccc3 51bd d931 f93c
00000040: f92f 09be 95f2 713d 6e43 373e 2395 67bd
00000050: 8502 3e3e fe8f a1be 1efa 8cbe e08b 133e
00000060: 90f5 3239 4463 abbe f819 953d ba38 c83d
00000070: 40e4 fc3d 5c60 cdbd 0bde f43d e11e 5f3e
00000080: 376d 863d 717e 733d ad6c 60bd a284 30bd
00000090: 631d 16be 7c46 053d 1c11 f7bd e43d 1abe
000000a0: 9555 2fbe 032e 2a3d 78de 92be ab21 cabc
000000b0: 9751 343e 82ae c7be c89b 36be 46ed de3d
000000c0: d455 23be 0fe9 68be 3728 a23d 81e1 fc3d
000000d0: 23a3 47be f24c 313d 23df 94bd 667f 703d
000000e0: 2d85 1d3e 659a bfbd 6315 35bd b857 03bc
000000f0: 7c8e 063e 0ba2 d53c 9e02 e03e 6324 d13c
00000100: a316 a4be 836d cbbd dde6 e7bb 8c4d a4bc
00000110: 1108 17be dbb8 21be 9efa 22be e428 bdbe
00000120: 0421 4fbe 946c 73bd aa40 05bd 957b 07bc
00000130: 737f 5dbe a9d6 94bd f65e 94bc e07f 81bd
00000140: 9e40 bb3d d11a 67bd a871 343e e4ef e83c
00000150: d805 88be 8e66 4ebe 2e4a fabd df18 cb3d
00000160: 64a1 2a3d 722e 363d 6c93 353e 1dd2 6a3d
00000170: d6cc a53d cdac 1d3e 993b f03b cd13 9ebd
00000180: 3992 d0bd 5a3c 73bc 8f6d 75bd cae5 d7bc
00000190: daa5 133b 58d5 c93c 3a0d 39be 283b 6bbe
000001a0: acb2 3fbe 38ab 8e3e b3d6 41be e0ef a33e
000001b0: 1806 4d3e b4e2 9dbe 22b5 94be cfa4 b0bd
000001c0: e56f dc3d 0c6e 3bbe c5ec cebd 4c95 623d
000001d0: 15b3 74be f423 1f3d 89e6 9e3d 71a9 903d
000001e0: 0e94 2bbb 9c5d e5bd 78eb ee3b 9ef6 5cbe
000001f0: 7f10 073e 4fda bd3d bd28 2bbd e924 e7bd
00000200: ab0e a23e bf2d 98be c4d0 62be 60ad 483e
00000210: 6f88 8e3a 5598 7f3e 158d 153e 2a7e 1bbe
00000220: 5556 ddbc 07e5 11bd 8f25 7bbe 42c7 a13c
00000230: f2e1 95be c754 87bd 7017 da3b cebb a33d
00000240: f5de 8fbe ae90 debd 7d8a 8f3d 4574 593e
00000250: 63d3 acbc 6403 8a3d 4dcc 3d3e e771 5b3d
00000260: 847c 2ebe 41bb 643d 6709 f33d fdc9 dc3d
00000270: 75e0 04bd 6505 d43d ae2d 523e 30f8 403e
00000280: 71c4 1ebd 72d9 65bd 346b 3bbe b9ab b33d
00000290: 966b 69be 236d 0a3e 0e59 c53d 585f 1abe
000002a0: 489a 3d3d 39ec 3fbe 2957 a5bd 61d7 9bbd
000002b0: 6208 3c3e 907a c8bd bf0c 363e 4038 8bbe
000002c0: b515 373d d13e 1abe 61f3 003e 6e5d e0bd
000002d0: d093 d6be 28de d6bc 79b2 f53d 4f76 c73c
000002e0: 6768 50be b001 84be b0aa 8abd 256a 943e
000002f0: ff8c 233c defb 303d 522e 73bd 1819 f73c
00000300: 7f87 ccbd 02fe dcbe b19b 8bbe 73db 66bd
00000310: 318d 25bd 27e9 54bb 90cc 9abd fe90 c9be
00000320: d9e5 c6bd 7170 073c 1e79 22be aa41 aabd
00000330: f53e 02be ee79 e93c 9854 0bbe 96cb 50bd
00000340: ac6d 54be 03d4 2abe 2bb3 413b e2d2 2cbd
00000350: 235c 3abc 4a28 4fbe 56a0 ae3e 335a 43be
00000360: c152 a93b 0c02 e73d 3ad5 5cbe b8b6 99bd
00000370: a9cf 0c3d 0dc9 f1bd a6b1 1fbe 049c 7fbd
00000380: dd73 91be fc57 47be 9459 babe c114 0b3e
00000390: 4014 f43c 0ba7 b6bd f72b d23c 7d9c d1bb
000003a0: db58 11be e5cc 40bd fe9a 98be 7b47 c5be
000003b0: c5a7 413e c555 a0bd e9c5 0f3e 04ab 0c3e
000003c0: 5278 823e 122c 983e 6fd8 36be f842 2b3d
000003d0: c2e4 313d 985a 80be 2ddc 0d3c 6328 993c
000003e0: 140d 7ebe cabd 12be ff08 853e e82c 3e3b
000003f0: 48f0 97be 2c69 943d 4b0e c0bd 6ee8 0bbf
0.115486994 -0.12802187 -0.16620563 -0.16127679 -0.4249378 -0.14773852 0.019706352 -0.14173378
-0.056748744 -0.18038137 -0.0100359 0.2168847 -0.09507937 0.009093465 -0.051212117 0.030419277
-0.13397206 0.059069235 0.17896816 -0.056538712 0.18555649 -0.3155517 -0.27534574 0.14408827
0.00017066882 -0.3347417 0.07280344 0.09776445 0.12348223 -0.10028145 0.11956414 0.21789123
0.065638 0.059446756 -0.05479114 -0.04309524 -0.14659648 0.032537922 -0.1206381 -0.15062672
-0.1712249 0.041547786 -0.28685355 -0.024674257 0.17609249 -0.39000326 -0.17832863 0.108851
-0.1595071 -0.22745155 0.079178266 0.12347699 -0.19495825 0.04328627 -0.072691225 0.058715247
0.15382834 -0.0935562 -0.04420985 -0.008016519 0.13140291 0.026078245 0.43751997 0.025530046
-0.3204852 -0.09932997 -0.0070770816 -0.020056508 -0.14749171 -0.15793173 -0.15915915 -0.3694526
-0.20227438 -0.05942972 -0.03253237 -0.00826921 -0.2163065 -0.07267506 -0.018111687 -0.06323218
0.09143184 -0.05642206 0.17621481 0.028434701 -0.26566958 -0.20156309 -0.1222118 0.09916853
0.04165782 0.044477887 0.17732018 0.057329286 0.0809571 0.1539795 0.0073313233 -0.077186204
-0.1018414 -0.014845932 -0.059918936 -0.02635469 0.0022529275 0.024637863 -0.18071452 -0.22971785
-0.18720502 0.27865005 -0.18929558 0.32018948 0.20021856 -0.30837023 -0.29044443 -0.08625185
0.1076353 -0.18303698 -0.10103754 0.05531816 -0.2389644 0.038852647 0.07758815 0.070635684
-0.0026180777 -0.11199495 0.0072912537 -0.21578452 0.13189887 0.09270155 -0.041786898 -0.11286337
0.31651816 -0.29722401 -0.2214995 0.19597387 0.0010874401 0.24960454 0.146046 -0.15184847
-0.027018705 -0.035618808 -0.24526046 0.019748334 -0.29273945 -0.06607967 0.006655626 0.07994805
-0.2809979 -0.10867439 0.070088364 0.2123576 -0.02109689 0.06738928 0.18534966 0.053575423
-0.17039686 0.05584264 0.11867028 0.10780714 -0.03244062 0.103525914 0.20525238 0.18844676
-0.03876156 -0.056115575 -0.18302613 0.08772988 -0.22794947 0.13518195 0.096361265 -0.15075433
0.046289712 -0.18742456 -0.08073265 -0.0760944 0.18362573 -0.09789002 0.177783 -0.27191353
0.044698436 -0.15063025 0.12592842 -0.1095532 -0.41909647 -0.02622898 0.119969316 0.024348406
-0.20352326 -0.25782537 -0.06770837 0.28987232 0.009982347 0.04320895 -0.059370346 0.030163333
-0.09986781 -0.43162543 -0.2726722 -0.056361627 -0.040417854 -0.0032487602 -0.075585485 -0.39368433
-0.09711809 0.008266554 -0.15866515 -0.08313306 -0.12719329 0.028500523 -0.13606489 -0.050975405
-0.20744962 -0.16682439 0.0029556255 -0.0421933 -0.011374506 -0.20230213 0.34106702 -0.19077377
0.0051673357 0.11279687 -0.21565714 -0.07505554 0.034377728 -0.118059255 -0.15595111 -0.062404647
-0.2840871 -0.19467157 -0.36396468 0.13582136 0.029794812 -0.0891858 0.02565573 -0.0063968287
-0.14194052 -0.047070403 -0.2980575 -0.38531098 0.18911655 -0.07828859 0.1404034 0.13737112
0.25482422 0.29721123 -0.17856 0.041811913 0.04343105 -0.25069118 0.008658451 0.018696016
-0.24809676 -0.14330211 0.25983426 0.0029018465 -0.29675508 0.072466224 -0.09377726 -0.54651535

base.base.2.bias f4 [32]
00000000: 2ff5 343e 486e e63d eeb1 bf3e 7c79 c23e
00000010: 9ca0 67bd 6300 163e da8b 0bbe 1f86 f93d
00000020: aac2 39bd 6261 363d 053d 81bd 5446 763e
00000030: 7d29 e73d 5d22 803b cf9e d33d 5a17 90bc
00000040: fb2c b8bd 592d c03d 112c f0bd 1b54 04be
00000050: 7426 04be a21b 1cbc b7ca 983d ed1b 683d
00000060: b729 863d 1834 df3d 6e79 0e3e 72aa 933e
00000070: 8daf c23c 8279 5d3e 0dd6 893d d985 b93d
0.17671655 0.11251503 0.37440437 0.3798331 -0.056549653 0.14648585 -0.13627568 0.12183785
-0.04535166 0.044526465 -0.06310467 0.24050266 0.1128721 0.0039103464 0.10333025 -0.01758926
-0.08992954 0.093836494 -0.11727155 -0.12922709 -0.12905294 -0.009528073 0.0746054 0.056667257
0.06550925 0.10898608 0.13913509 0.28840977 0.02376535 0.21628383 0.0673028 0.090587325

base.base.4.weight f4 [32, 32, 3, 3]
00000000: 47fd 6dbc 9f1a 893e 769e 613e 83ef 0cbf
00000010: 5136 00be eedf 8ebe ec35 97be 1dc7 adbe
00000020: ae86 70be b915 433e 8bf5 bb3d 3584 ae3d
00000030: 301f 03bf 0fa0 28be d54f 1fbe d004 ae3d
00000040: 55f1 d2bc b188 33be 59a0 b2bd 9c10 1c3b
00000050: 8684 a0bd 3519 82be 47ec 20bd f35c f03b
00000060: bed7 823e 6b87 e73e 1af9 51bb e31d cfbd
00000070: 33dc 22be 1d33 96be f7a8 9b3c fda7 45be
00000080: 0b7c 89be e199 1dbe 5d8d 17be 7c8c 833e
00000090: 11db 88bd 425f 5dbe 2d6a e0bd 637c 963d
000000a0: a36f b53d c6a9 8dbc 7a51 b6bc 99d6 1fbe
000000b0: 6bcc 93be fcdf 17be dad9 3ebc e373 3f3d
000000c0: 35fb 28be 26f9 1abe 9c75 c8bc 330e d43c
000000d0: 52a2 fa3b 17ec 59bd 0771 1abd c7c4 883d
000000e0: ffcf a43c 0a82 703d 3007 bfbe c335 48bd
000000f0: b421 abbd bf22 35be 1275 a9be 517a 7fbe
00000100: d16e c7be 489e 253e f515 57be 9d20 01be
00000110: bf7b 873e 0743 5ebd 8043 883d 2522 123e
00000120: e1b6 23ba e8c9 d6bd 8d15 ce3d 2658 4cbd
00000130: bd20 cdbd 1537 cfbe 375e 3e3d 622c abbe
00000140: 2d5e 37be dcb0 c2bc 2a5e 40be 0661 983e
00000150: 4cb3 023e 58ad 6c3d 7854 8bbc 08b5 a33d
00000160: 8d7b a9bd 733f 90bc e6d2 bd3d a87a 40be
00000170: abc9 2cbd 9494 3d3d 4d8f 553e 54a4 1dbf
00000180: bdbf 32be 9e6b 8fbe 0048 1f3d 4c6c 64be
00000190: 6811 83bd 3337 5fbe de2b 18be 9437 fc3d
000001a0: bd52 e23d d5b7 333e 25a5 e4bd 941d 32be
000001b0: 4788 673c bdfe 8bbe d9cb 1dbe 08cd 2b3e
000001c0: aaab 33bc 001d b03d 6e30 703e 76ec b1be
000001d0: 6232 e43d 45af cbbd b287 1c3e 19d3 78bb
000001e0: 30de cebd 1c5e 203e 3375 453e 38e3 b7bd
000001f0: cf47 5fb9 bff5 65be 9b3a 66bd aabe ff3d
00000200: be94 28be 7dc6 dfbd 2809 903d 9f42 69be
00000210: f90f 153e 9697 babd 344a fbbd 0158 d13d
00000220: 2187 2b3e 580f ad3e a344 84be 196d 50bd
00000230: dc3b 683d d719 edbd 6c1d 1b3e 8306 5b3d
00000240: 5bbc bebe b0a0 90bd 13ce 32be 5076 a3bc
00000250: 63c7 34be 8c3e 9fbd 15ea ddbd e87a c83c
00000260: 6c8f 68bd c3a9 cabd f35a 1b3e e345 edba
00000270: fbba 23bc 2a05 ae3c 7919 173e 932d 0bbe
00000280: 2155 babe 0eb1 bb3d 2604 8c3d e368 28bd
00000290: 1fc2 693b d6f4 76be 1d69 febd 0c2c 5ebe
000002a0: 7325 403d fd58 8dbe 68f6 3bbd 6b7b 5cbe
000002b0: ce1c 1d3e 6f30 1dbe e845 323e 2aac 45bd
000002c0: e9c3 bd3d dfa9 17be 1544 a8bd ecf8 19be
000002d0: 19aa 283d b521 a33d 1eec 0d3e fb9d 58be
000002e0: 2df1 633d 267a 43be d501 f53b 539d 7e3b
000002f0: af8f 41be 7116 f13d 1fbf 213e 4df2 1cbe
00000300: f3db 34bc 5cea 173d 8286 24be 26eb eb3c
00000310: 4877 3ebe a8b7 983d c07d 12be 4c27 54be
00000320: 53d0 993d eda6 4c3d cde4 0dbe 363e 8ebd
00000330: 4151 013e 96f2 d4bd d21a 65be 5b05 b3bd
00000340: bd11 6cbd 6499 f9be 937b ad3d a13f 273d
00000350: 6a4f f63d 3ef0 0a3e 9346 753e 34ea 46be
00000360: bc05 9ebe c4f5 49be 8865 f1bd 802e 643e
00000370: 6631 773e 55db de3c 6dea cebd 5ddc 3f3e
00000380: 09d7 1f3e 2feb 943c c8b7 3cbd e5f5 e0bd
00000390: cd13 99be e1c6 033e fa37 e93d 29b9 19be
000003a0: 5af5 fd3d c47b 6e3e 7fd3 303d e048 d9bd
000003b0: 51bf 0abe 4528 8b3e 11e2 6dbe 6ab7 ce3d
000003c0: f707 29bd 9718 3c3e aafc 2d3e fc1a 8e3b
000003d0: 653f 28be 4f62 4f3e ef9b b73e 59ce 1dbe
000003e0: f107 c03d af7a c4bd 8f3b adbd aef2 42be
000003f0: 8440 46bb 3f18 dcbd ea5d 04be efc0 a73a
-0.014525718 0.26778123 0.22033104 -0.55052966 -0.1252072 -0.2790522 -0.29533327 -0.33940974
-0.23488876 0.19051255 0.09177693 0.0852131 -0.51219463 -0.16467308 -0.15557797 0.08497012
-0.025749842 -0.17532612 -0.0872199 0.002381361 -0.07837777 -0.25409856 -0.03928783 0.007335299
0.25555223 0.45220503 -0.0032039345 -0.10113122 -0.15904312 -0.2933587 0.019001467 -0.19302364
-0.2685245 -0.15390731 -0.1480002 0.2569312 -0.066824086 -0.21618369 -0.109577514 0.07347944
0.08859184 -0.017292868 -0.022255648 -0.15609206 -0.28866896 -0.14831537 -0.01164862 0.046741378
-0.16502078 -0.15134105 -0.024470143 0.025885677 0.0076487446 -0.05320367 -0.037705448 0.06678157
0.020118712 0.058717765 -0.3731017 -0.048879396 -0.08356038 -0.17689036 -0.3309713 -0.24949004
-0.38951734 0.16173661 -0.2100447 -0.12610097 0.26461598 -0.05426314 0.066534996 0.14270838
-0.00062452076 -0.10487729 0.10062704 -0.049888752 -0.1001601 -0.40471712 0.04647657 -0.334323
-0.17907019 -0.023765974 -0.1878592 0.29761523 0.12763709 0.0577825 -0.017008051 0.07993513
-0.082755186 -0.01760838 0.09268741 -0.1879679 -0.042184513 0.046284273 0.20855446 -0.6157887
-0.17455955 -0.28011793 0.038887024 -0.22306937 -0.06399804 -0.217984 -0.14860484 0.12315288
0.11050937 0.17550595 -0.11164311 -0.17394096 0.014131612 -0.27342787 -0.15409793 0.16777432
-0.010966221 0.08599281 0.23455974 -0.34750718 0.11142422 -0.099455394 0.15286139 -0.003796762
-0.10100973 0.156609 0.19282989 -0.089788854 -0.00021293688 -0.22457026 -0.056208234 0.12487538
-0.1646299 -0.109265305 0.070329964 -0.2277932 0.14556874 -0.09110944 -0.122700125 0.102218635
0.16750766 0.3380077 -0.25833616 -0.050885294 0.05669771 -0.11577194 0.15147942 0.053473007
-0.3725308 -0.07061899 -0.17461424 -0.019953877 -0.17654185 -0.07775602 -0.10835663 0.024472669
-0.056777403 -0.09895661 0.15171413 -0.0018102493 -0.00999331 0.021242697 0.14755811 -0.13591604
-0.36393073 0.0916463 0.06836729 -0.041115653 0.0035668684 -0.24116835 -0.124223925 -0.2169649
0.046910714 -0.27606955 -0.04588929 -0.21531455 0.1534302 -0.15350507 0.1740948 -0.04825989
0.092658825 -0.14810894 -0.082161106 -0.15036362 0.041177843 0.079654135 0.13859603 -0.21154015
0.055649925 -0.19089565 0.007477025 0.0038851097 -0.18902467 0.117718585 0.15795563 -0.15326805
-0.011038768 0.037088737 -0.16066936 0.028798651 -0.1860019 0.07456905 -0.14305782 -0.20718116
0.07510438 0.04996388 -0.13856812 -0.069454595 0.12628652 -0.10397832 -0.22373512 -0.08741256
-0.057634104 -0.4874984 0.084708355 0.040832166 0.12026866 0.13568208 0.23952703 -0.19425279
-0.3086375 -0.19722658 -0.11786944 0.22283363 0.24139938 0.027204195 -0.10103307 0.18736406
0.15609373 0.01817855 -0.046073705 -0.10984401 -0.2989792 0.12868835 0.1138763 -0.15012039
0.12400313 0.232894 0.04317045 -0.10609603 -0.13549544 0.2717916 -0.23230769 0.10093577
-0.04126736 0.18368755 0.16990915 0.004336713 -0.16430433 0.20252346 0.35861155 -0.15410747
0.09376515 -0.095937125 -0.084586255 -0.19037887 -0.0030250857 -0.10746812 -0.1292645 0.0012798588

base.base.4.bias f4 [32]
00000000: 03bd 17be c744 213c 2899 9ebe 692c 94bd
00000010: dbe8 07be e06f 97bd 6a1d 4fbd 267b 6fbd
00000020: c1e5 a6bd f6c3 02be 034a b6bd 5e22 4abe
00000030: 1fe3 c7bd b820 adbd 8e59 c8bd 3eb2 31be
00000040: 9eed 98bc b3bb 0fbe 7d02 08be ea0a 84be
00000050: 134c 4dbe e5ea 6cbc 91b7 19be 68f7 46be
00000060: bf4e 80be 34b7 59be ffb9 acbe 22c5 9ebd
00000070: fbce 07be 689a d7bc 7a2e c6bd f405 8abe
-0.14818196 0.009843058 -0.30976224 -0.07235033 -0.13272421 -0.07394385 -0.05056516 -0.058467053
-0.08149291 -0.12770066 -0.08900835 -0.19739673 -0.09760117 -0.08453506 -0.09782706 -0.1735315
-0.018667992 -0.14036445 -0.13282199 -0.25789577 -0.20048551 -0.0144603 -0.15011431 -0.19430315
-0.25060079 -0.21261293 -0.33735654 -0.07752444 -0.1326255 -0.026318744 -0.096768335 -0.26957667

base.fc1.weight f4 [128, 128]
00000000: a5c6 4bbb d4cc 323e 0f99 313e 1f5c 8dbd
00000010: f633 ddbd 5bc4 2e3e 0069 3e3e 71cd 05be
00000020: 8330 303e 0779 06be 7690 40be a79e 38be
00000030: 7b64 d2bc 6ce9 03bd 62b9 49be a3f3 05be
00000040: 7dfe af39 45bd dabe 23ad 833e 6e79 6fbe
00000050: 986a c73c d7b1 b7bd 66ad 3a3e d404 50be
00000060: 8ebc 4ebd d0b5 913d 3790 823b 770e 11be
00000070: 728b 28be 004b 01be 7965 cc3c 5879 253e
00000080: e468 05be 8c87 823d f5c6 d03d 9cce 4e3d
00000090: 5a14 fc3d 4ea1 37be bc9f 303d 32e9 103c
000000a0: bc0f 963d e9da a3bd 1fd0 1dbe c960 89be
000000b0: 511d 00bc 9edb fcbd 9640 f3bd 78ea 75bc
000000c0: b7af 4cbe 7245 c33d 84d7 273d 83bb 073e
000000d0: 13b4 373e f8e7 0cbe 6910 2f3d b1f3 863e
000000e0: ebdf 073f 5fd1 00bc b35c b73e b25a 793e
000000f0: 0229 d03c 109b 353e 45af 4bbe a020 bfbd
00000100: 472e ddbd 8715 d23d 1a61 a3bd 470f 03be
00000110: 8d4c d63d c877 b63d ef0e 2a3c 2d1f c73e
00000120: 4b46 48bc 18a1 fa3d 4371 bdbd 09d2 353c
00000130: 87b4 773d 4297 063e 2978 d73d be11 c5bc
00000140: 51e1 81be 71d3 473e 3a69 abbd 510c 85bc
00000150: 263a aabd 3666 eb3d 460a 7bbd 25fd adbd
00000160: d2e6 41be 0c14 00be 180b 253e e1c2 1ebe
00000170: 58c9 7ebd 183e cebc 3570 b63d 8b38 92bd
00000180: ffe2 0f3d fc65 ffbd df63 2cbd 8bd1 70bc
00000190: 2a82 78be 7932 a53d 78a5 69be 9fac 343d
000001a0: fc84 36bd 9cc9 abbe 64b6 c6bc 33f7 b2bc
000001b0: a216 8d3d 0edd 3bbe 7cbe ecbd d329 90bd
000001c0: 8100 5ebd cf69 6d3d 7653 7cbd 90c5 353e
000001d0: 7082 803d 80f1 34be f836 32be 44a4 85be
000001e0: c001 25be adab 133d 0fe7 10bd 7b60 503e
000001f0: c804 67be b877 8abd 0b58 e93e 6779 bfbe
00000200: 46a6 4bbd 9bda 3cbd 4510 8fbc fbb1 22be
00000210: d645 91be 64cb 343c d205 12bd c98d 0fbe
00000220: 09a6 a43c 984f 06bf 6ae2 38bc 5f66 50bc
00000230: e521 7bbe 9d07 babe 7b49 4abd d64e 2dbd
00000240: 9444 bbbe 3c00 3d3e 90b0 f13a 64b5 493e
00000250: 5bad 26be 2e06 133e e928 0fbe c58f 80be
00000260: 87de d5bd de0d e53c 19f2 5bbd 792d 983e
00000270: 3269 b63e 7359 a5bc ed18 923d cacc 103d
00000280: 11c5 a8be 05a5 aabe 3d7a 0cbe 99da 52be
00000290: ffb2 493e 545f ffbe 20e5 ea3d 8fd6 773d
000002a0: b4bd 0cbe 15bc 6b3e 2f94 9c3e dc85 9abc
000002b0: 1bb4 93be 4a98 96bd 480f 0a3e 2af7 a13d
000002c0: f48f d0be 0585 2bbd ad8a f73b d56f 653d
000002d0: 91ee 8cbd 3f4f de3e 8157 a53d 4b0b edba
000002e0: f572 3abe a17d 45be e381 7bbc e284 94bd
000002f0: 68a3 4dbd b1ad ccbd 6864 a5be cef7 33be
00000300: 3fdf 4f3c fbf7 8e3d e6e0 65be c217 92be
00000310: 4821 5cbe 316e 483d 0f17 bf3d b384 13be
00000320: 74b0 67be d031 65bd 0b30 0cbe 643d a1be
00000330: 174a 51be be90 0ebe fff7 06be c35c 9dbd
00000340: a5f2 92bd 4874 673d 610b ebbd 1ab3 ee3d
00000350: f137 64be e9a8 43be 3a26 b1bd 3915 8f3e
00000360: 8664 c1be ebcd 01bc 950b a5be 742e abbd
00000370: 096d 81be d983 c5bc b7fc 40bc 5ed5 dbbe
00000380: b81f 823c b1a1 59be 04a0 83bc dd8f 85bd
00000390: 6ce6 eebd 3e60 3abe f6bd 2c3c 6189 9fbc
000003a0: 4b06 1fbe 58c5 79be 446e 573d ea29 a5bd
000003b0: b439 343e 3900 99bb c407 803e 43d2 a43d
000003c0: 2920 3cbe 26bf 14be 256f 38be 20a3 833c
000003d0: abd6 173e b7c4 8e3e 58d6 56bd 1bae a7bd
000003e0: b888 a3bd 9c41 3e3d 9955 503d 5a98 10be
000003f0: c72a 9fbd 6edc fc3d 765d e5bc 1c92 293d
-0.0031093743 0.17460948 0.17343543 -0.06902336 -0.108009264 0.17067091 0.18594742 -0.13066651
0.17206006 -0.13132106 -0.18805107 -0.18029271 -0.025682678 -0.03220503 -0.19699624 -0.13081221
0.0003356821 -0.42722526 0.2571803 -0.23386165 0.02434282 -0.08969467 0.18230209 -0.20314342
-0.05047279 0.07114756 0.003984477 -0.14165674 -0.16459444 -0.12626266 0.02495073 0.1615957
-0.13028294 0.0637351 0.10194198 0.050490007 0.12308569 -0.17932627 0.043121085 0.008844661
0.0732722 -0.08000738 -0.15411423 -0.26831654 -0.00781949 -0.12346576 -0.11877553 -0.015009515
-0.19988905 0.0953473 0.040977016 0.13255124 0.17939787 -0.13760364 0.04274026 0.26357797
0.53076047 -0.007862418 0.3581291 0.24351004 0.025410179 0.17734933 -0.19891079 -0.093323946
-0.10799842 0.10258012 -0.07977505 -0.12798797 0.1046382 0.08909565 0.010379537 0.38890973
-0.01222379 0.122377574 -0.092501186 0.01109744 0.0604749 0.13143638 0.105209656 -0.024056312
-0.25367215 0.19514252 -0.0836968 -0.016241224 -0.08311872 0.114941046 -0.061289094 -0.08495549
-0.18935707 -0.12507647 0.16117513 -0.15504028 -0.062203735 -0.025176093 0.089081205 -0.07139691
0.03512859 -0.12470624 -0.042087432 -0.014698396 -0.24268404 0.080662675 -0.22817028 0.044109937
-0.044560418 -0.33552253 -0.024256893 -0.02184639 0.068890825 -0.18346044 -0.115597695 -0.07039227
-0.0541997 0.057962235 -0.061603032 0.17751145 0.06274879 -0.1767025 -0.17403781 -0.26101887
-0.16113949 0.036052395 -0.035376605 0.20349304 -0.22560418 -0.06761116 0.45574984 -0.3739731
-0.049719118 -0.046106916 -0.017463813 -0.15888207 -0.28373593 0.01103482 -0.035650082 -0.1401893
0.020098703 -0.524652 -0.01128445 -0.01271972 -0.24524648 -0.36333933 -0.049386483 -0.042311512
-0.36575758 0.1845712 0.001843946 0.19698101 -0.16277067 0.14357826 -0.1398045 -0.25109687
-0.10442834 0.027960714 -0.05369768 0.29722193 0.35627133 -0.020184254 0.071336605 0.035351552
-0.3296285 -0.33329025 -0.13718505 -0.20591201 0.19697188 -0.49877417 0.114694834 0.060507353
-0.13744241 0.23020966 0.30581805 -0.018862657 -0.28848347 -0.073532656 0.13482392 0.07908471
-0.40734828 -0.041874904 0.0075543732 0.056014854 -0.068814404 0.43419835 0.08073331 -0.0018085031
-0.18207915 -0.19286205 -0.015350792 -0.07251908 -0.050204664 -0.099940665 -0.32303166 -0.17574999
0.012687503 0.06980892 -0.22449073 -0.2853375 -0.21497071 0.04893321 0.0933057 -0.1440609
-0.22625905 -0.055955708 -0.13690202 -0.3149215 -0.2043842 -0.13922402 -0.1318054 -0.076837085
-0.07175187 0.05650738 -0.1147678 0.11655255 -0.22286965 -0.19107403 -0.08649869 0.2794588
-0.37772006 -0.00792263 -0.322354 -0.083584696 -0.252785 -0.024110721 -0.011779002 -0.42936224
0.015884265 -0.21253087 -0.016067512 -0.0652158 -0.11665043 -0.18200776 0.010543337 -0.019474687
-0.15529744 -0.24391687 0.052595392 -0.08064635 0.17600137 -0.004669216 0.25005925 0.08047917
-0.18371643 -0.14526042 -0.18011148 0.016068995 0.14827983 0.27884457 -0.052450508 -0.08187505
-0.079850614 0.04644929 0.050862882 -0.14120618 -0.07771831 0.12346731 -0.027998667 0.041399106

base.fc1.bias f4 [128]
00000000: 6d2f 0abc 29d8 67be 9e61 32be a97b c8bd
00000010: be7b a63e 1d92 de3d 498c 133d 7e94 79bd
00000020: 5402 aabd 2dad 823d bd12 97be 755e 633d
00000030: 2cd4 05be 6fbe cb3d d98d 0abe bab7 d13c
00000040: df15 d1bd 579c ccbd b6bb 4c3e 03b1 fabd
00000050: a5ee 193d bd87 093e 6c37 953e b423 5dbe
00000060: 65e7 71bd dec9 a03d 2783 d23d 02d9 7cbe
00000070: c843 9cbd 9bc4 07be d585 07be 4537 ecbd
00000080: 4ca5 f8bd 0045 8c3d 7dad d93d 986d 50be
00000090: f7ff d6be 266c b3bd af44 dfbd 54bf e73d
000000a0: f5b2 97be 1146 d5bd bb1c 6bbd 29d4 7abd
000000b0: 195f 82bc 77a7 57bd 6758 0ebd 55cc e33d
000000c0: 12d3 99bd 7fcd 8c3e a3e5 a33c f444 183d
000000d0: ca90 a9be 3499 d4bc 8f72 8bbd bfe3 b0bc
000000e0: da8d 9c3d 31bd 05bd f5eb 26be 05d0 fdbd
000000f0: 4c88 883d 68c2 71bd c51f 80be ceb7 11be
00000100: 7607 8b3e 3bee d9bd f854 d239 14b5 153f
00000110: 7960 e13c 13d9 cabd 85fc 37bd 6a73 32bd
00000120: c6bb e9be 1fff 82bc 512b 843d 869f e2bd
00000130: b4c5 3d3e a561 b3bd e3d6 b43b 3ff2 183d
00000140: 97c4 3d3d d375 0fbd 426a e0be 648f fa3d
00000150: 57bf a3bc fcb0 b0bd 2eae 07bd 2604 53be
00000160: 8ecd 45bd 2789 4ebd 85d7 ff3d 7123 ac3d
00000170: 42b4 383c 0ebe 9dbd 917b 763e 2056 bc3d
00000180: acdd b1bd abfe b2bc b921 4d3d b6f9 c9bd
00000190: 9747 cdbe 8354 d53b 7340 bdbe 2266 c2bd
000001a0: 7138 423d 9b98 4d3d a7d6 72bd c722 6dbd
000001b0: 1bc9 cabd 92b0 3abe a996 85bd 3dfb 53be
000001c0: 7414 8ebd 8a49 203d 5c5c 8f3d 7bc6 183e
000001d0: 6733 a3be df61 fbbd 01e3 773e 02f8 b43d
000001e0: 4fb4 1b3e 06f7 f7bc 7730 9ebd 9dbc 94be
000001f0: 38bb 28be 1a63 003e b89d b2bd 6a75 debd
-0.008434159 -0.22641052 -0.1742005 -0.09789211 0.32516283 0.10867713 0.03602246 -0.06093263
-0.08301225 0.06380687 -0.29506484 0.055510003 -0.13069218 0.09948432 -0.13530673 0.025600303
-0.1020925 -0.09990757 0.19993481 -0.122407936 0.037581105 0.13430686 0.29143846 -0.21595651
-0.059058566 0.07851003 0.102789216 -0.24692157 -0.07630116 -0.13258593 -0.13234647 -0.11533979
-0.12140903 0.06849098 0.106287934 -0.20354307 -0.4199216 -0.08760862 -0.10901772 0.1131579
-0.2962872 -0.10413755 -0.057400446 -0.061237488 -0.015914487 -0.05264994 -0.034752276 0.111229576
-0.075109616 0.2750053 0.02000696 0.037175134 -0.33118278 -0.02595196 -0.0680896 -0.021592973
0.076442435 -0.03265113 -0.16300948 -0.12393192 0.066666216 -0.05902329 -0.25024238 -0.14230272
0.2715413 -0.10641142 0.00040117628 0.5847943 0.027511822 -0.09904685 -0.044918556 -0.0435671
-0.45651072 -0.015990792 0.064535744 -0.11065583 0.18532449 -0.087588586 0.0055187806 0.0373404
0.04633006 -0.035024475 -0.43831068 0.12234381 -0.019988699 -0.08627507 -0.033125095 -0.20607051
-0.048291735 -0.050423767 0.12492279 0.084051974 0.011273446 -0.07702266 0.24070574 0.091961145
-0.08684859 -0.02184995 0.05008099 -0.09862082 -0.4009368 0.0065103187 -0.36963233 -0.094921365
0.047417108 0.050194364 -0.05928674 -0.057894494 -0.09901639 -0.18231419 -0.06522877 -0.20701309
-0.06937495 0.039132632 0.07000038 0.14919464 -0.31875154 -0.12274527 0.24207689 0.08836366
0.15205501 -0.030269157 -0.07724088 -0.2905015 -0.16477668 0.12537804 -0.08721489 -0.10862239

base.value_head.weight f4 [1, 128]
00000000: 2191 d43a f770 1c3c 4762 203b 1380 403b
00000010: 43b9 4c39 094b 973b dd8e 63bc 783c a6b9
00000020: 6c9f 343c 7d8a 43bc d793 f83b 30ed 163b
00000030: fb63 08bd 96c1 4d3c e9f9 92bb ecd7 743b
00000040: 59e6 9a3b 3fef 13bb 75ae a73a 15bc 08be
00000050: 809b 0a3c 48a5 af3b aa04 e23b 6471 d5bd
00000060: 19dc 2cbc 4229 583c 087d 6cba 91ca 9a3b
00000070: 9da5 c3bb b6b2 c239 56b6 5f3b ee58 65b9
00000080: 3f56 56bb 15dd fc3a a11f b83b eef3 6eb8
00000090: 3f4b 823e 6eec 0f3c e2d2 a83c f9e5 d63a
000000a0: 2680 a0bc d98e 4e3b e412 423a f310 96bc
000000b0: a2af 60bc de45 16bb 49b7 4c3a 2ba7 c93b
000000c0: fca5 16bc 3263 88ba 6258 4dbb e6ab f53b
000000d0: 9a79 133d 9d87 123c 6928 0f3c 362d 3b3b
000000e0: cdfa adb9 38a6 463b acc9 e13b 7d6e f6ba
000000f0: 998f 1c3b cf3b 113c 785f a63a 786e 0b3c
00000100: f9c5 83bb cbfb b13a e214 c5b9 e391 dcbc
00000110: aebc 943b 87df 79bc 32e1 06bc 70c9 fbbd
00000120: 35c2 a83e 3e4a 1cbe 5c65 80be e94a 823b
00000130: 7404 84bc 213e 933b 86cb dabb b9e3 5338
00000140: 0eeb 5eba e914 34bd 08b9 773e 389d c7bd
00000150: a52e 4a3c 5baa b93b b0a5 83bb 035e bfba
00000160: b57e 3d3b 8b39 793b 83ac a1bc 06c3 9abe
00000170: 9dac c43b c239 6fbc 55b2 4dbc 9bd9 dfbb
00000180: d2a7 f23a b18e 0a3c 3ec8 723b 18b2 6fb9
00000190: 0420 8a3e 8a20 0db7 8290 653e 1a5a 2c3c
000001a0: 1c89 8abe 4aa3 b53b c1a8 133b e38f 853b
000001b0: 98ce dc3b 8851 c93a 9ec2 fdbc f331 8a3b
000001c0: 0d0e 2aba 185f 00bb 5909 0dba 4b4d 57bc
000001d0: ab7b 953d 0a38 973a 4f3a 5d3b adf7 89be
000001e0: ff81 443b dc7a 753b 25ba 823a 2249 833c
000001f0: 8fc7 103c 7a8c 443b c49b 653b 5267 073c
0.0016217568 0.009548417 0.002447264 0.0029373213 0.00019523971 0.004617099 -0.013889042 -0.0003170704
0.011024337 -0.011934874 0.0075859833 0.0023029558 -0.033298474 0.0125583615 -0.004485358 0.0037360145
0.0047271666 -0.0022573022 0.0012793081 -0.13352998 0.008459926 0.005360279 0.0068975287 -0.10422018
-0.010550522 0.01319343 -0.00090213167 0.004723855 -0.0059706704 0.00037135714 0.003413578 -0.00021872271
-0.0032705215 0.0019291962 0.005619005 -5.69708e-05 0.25448033 0.008784397 0.02060837 0.0016395441
-0.019592356 0.003151825 0.00074033276 -0.018318629 -0.013713749 -0.0022929828 0.0007809294 0.006153961
-0.009194847 -0.0010405539 -0.0031333198 0.0074972985 0.03600464 0.008943466 0.008737662 0.0028560883
-0.00033183992 0.0030311476 0.0068904962 -0.0018801239 0.0023889302 0.008864357 0.0012693247 0.0085102245
-0.004021403 0.0013579068 -0.00037590327 -0.026925033 0.004539094 -0.015251047 -0.008232402 -0.122942805
0.32960668 -0.15262696 -0.2507733 0.003976215 -0.016115405 0.0044934903 -0.006677094 5.0518403e-05
-0.0008503654 -0.043965254 0.24191678 -0.09746784 0.0123402225 0.00566606 -0.004017554 -0.0014600161
0.0028914635 0.0038028683 -0.01973558 -0.30226916 0.0060020224 -0.014601173 -0.012554725 -0.0068313605
0.0018513149 0.008456872 0.0037045623 -0.00022859161 0.2697755 -8.411831e-06 0.22418407 0.010519529
-0.2705773 0.005543147 0.0022531005 0.0040759905 0.006738495 0.0015359381 -0.03097659 0.00421738
-0.0006487079 -0.001958793 -0.0005380116 -0.013140987 0.072989784 0.0011537087 0.0033756678 -0.26946774
0.002998471 0.0037457263 0.0009973688 0.016026083 0.008836641 0.0029990957 0.003503547 0.00826438

base.policy_head.weight f4 [128, 128]
00000000: 36d4 353e c50f 8ebe 7e2c dcbd e07f 35be
00000010: fdab 95bd 474e 2f3e 11c2 5ebd 504d 53bd
00000020: cacb 90bd 277b c03c e725 33bd 9cc1 143e
00000030: 1c51 813c 715d 75bc 98d8 d9bc 762d adbd
00000040: e4f5 8abd 0b1b 023e fe08 13be 6ad0 74be
00000050: d48c 8cbc 8a6c 9dbc 59a8 1f3d fd62 033d
00000060: 2652 f4bd a512 1f3d 661f 513e 01f8 173e
00000070: 97d1 a03c 3c82 3f3d 753c afbb 247f 093c
00000080: d2b5 39bd 2ac5 26bd b446 babd c43c 14be
00000090: da59 f6bd ecf1 d7bd 1ac8 39bd 3506 ce3d
000000a0: d344 33bd 7b95 17be 885a 853c fb1a 95bd
000000b0: 748f 913e b4e9 48be 79d0 a63c e690 91bd
000000c0: 05c4 1abe 712c 29be 964f f33c 1d48 8f3d
000000d0: f61d 7d3d 0cd6 c83d 8e6f dd3d b16a 24bd
000000e0: ba73 033e 6144 dbbd 88df 8abd baf8 533e
000000f0: 6572 9f39 081a 373d f3f6 5abe e2e6 8c3d
00000100: 4dde dabc 301f 8d3d 70ec 703d d140 bb3c
00000110: 1c8f 0c3e 10d5 28be 2023 91bd 2607 f43d
00000120: b19d dcbc 32f2 39be 1563 a6be 6600 66bc
00000130: 60de 153d 5346 e7bd f9cc 133d a70d d93d
00000140: 81bb b83d 7928 2b3c b0f4 123d 9a48 bbbd
00000150: fe0f 883d c059 a83d 8429 aa3e 4246 35bd
00000160: 62d5 8d3d 15a6 b33c b87f 90be 6c22 fdbd
00000170: cb8b 72bd f284 cf3c b543 943c 02a6 9e3d
00000180: 608b 53bc 16b8 09be 16e9 bfbd 6c19 44bd
00000190: a4c0 6e3e f0b7 193d dab6 a9bd d613 07bd
000001a0: fcdb d7bd 0c73 bc3d 01cb 0c3e 987a 283e
000001b0: 3544 16bd 2aeb 1c3e 09ea b8be 6cf8 153d
000001c0: 2874 31be e68b ad3d 4419 c53d cf64 98bd
000001d0: 0b36 c5bd 4004 f43d e0fd 8c3e e575 2cbe
000001e0: e9e0 2f3c 881d 1fbb ad62 bbbd 8fa7 aebe
000001f0: 2c3b 33be c658 3dbd 0cc7 62be 24a1 a43d
00000200: d26c 48bc 1ca1 80bd b532 21bd 79ed 98bd
00000210: f445 55be 81c9 423c 45d3 91bc b93f 7abd
00000220: 2357 373e 81ed 3ebd b326 0ebd b5bc 76bd
00000230: ba72 5c3e a5e3 32be 961a 26bd 9233 213e
00000240: 161b 1ebe d75f aebd dfc5 1abe 20d4 213e
00000250: 624d 90bc dfcf bc3d 14af 77be 6611 433d
00000260: 7954 7c3d 9d4d c33d fbb0 553c 7bd0 063e
00000270: 2876 e93d 745b cf3b e304 06be bc1e a03d
00000280: 5da7 91bc b1aa adbd 2d32 a4bd 9390 b43d
00000290: 27a4 98be a640 2f3e 1176 0fbe a56d 26be
000002a0: 3da1 3e3d 95a4 c93c cf4f 733d 9511 0d3e
000002b0: 4ba7 c6bb e300 34bc da1a 6ebd 55f1 c03d
000002c0: 4260 933e e37d abbd dd8f 05be c9a4 fbbd
000002d0: 82ef fb3d 79ce 73be c4fc 4cbe 3098 123e
000002e0: 85c3 9c3e de7a 933c cb95 9fbd efbc 7cbd
000002f0: 494d 443e 7b5b dbbd 3963 00bd ac69 c9bd
00000300: 3799 1e3e 9fe8 4b3e 19c5 69bd d861 1dbe
00000310: c56d 8c3e 2f3e 863e ece6 193d 7b31 813d
00000320: aee6 a13d 3124 66bd af4c d1bd 8f9c 553e
00000330: be2e aa3e fd54 01bd 816f cb3c 149f 6d3d
00000340: 8896 183d a661 393d e6d3 973d 289a e03c
00000350: 81aa 10be ce0a 95bd ef3c 77bd 7b72 fcbd
00000360: 16c2 7b3d dc8a dbbd e273 293e c4a2 653e
00000370: 7bfb 5cbe d55a 6b3e 305d 5c3b c48c e4bc
00000380: 3d4d de3d 5a39 ef3b 05d4 44bc c8d9 003e
00000390: 76e8 88bd fa67 84bd 6dd2 223e 30cf 913e
000003a0: d57b e93d 8c9b 86bd 06b5 ebbd 5634 85be
000003b0: b4ad 05be f735 5abc 50a6 a5bd a1cd a13d
000003c0: 928e 273d 9d09 14be 3b03 b6bd f047 c8bd
000003d0: 6da1 f93d 0b10 223e 86a0 bebd 1d7a c13d
000003e0: 6335 3e3d 1819 203d efea afbc c370 83bc
000003f0: 6daf b23d d4e6 15be 4534 913d 49d8 9d3d
0.17756733 -0.27746406 -0.10750674 -0.17724562 -0.07308195 0.17119704 -0.054384295 -0.051587403
-0.0707012 0.023496224 -0.04373732 0.14526981 0.015785746 -0.014975891 -0.026592538 -0.084559366
-0.06785181 0.12705629 -0.14358899 -0.23907629 -0.017156996 -0.019216795 0.03897891 0.032076824
-0.11929731 0.03883614 0.20422134 0.148407 0.01963119 0.04675506 -0.005347783 0.008392129
-0.045339413 -0.040715374 -0.09095517 -0.14476305 -0.120288566 -0.1054419 -0.045356847 0.10059778
-0.043766808 -0.14803116 0.01627852 -0.07280537 0.2842976 -0.196204 0.02036308 -0.07107715
-0.15113838 -0.1652086 0.029701035 0.069961764 0.06179615 0.09806451 0.10812293 -0.04014081
0.12837115 -0.107064016 -0.067809165 0.2070035 0.00030412074 0.04470256 -0.21383266 0.06879975
-0.02671733 0.06890714 0.058819234 0.022858055 0.13726467 -0.16487527 -0.07086778 0.11915426
-0.026930662 -0.18158796 -0.3249747 -0.014038181 0.036589026 -0.1129271 0.03608415 0.10598307
0.090201385 0.010446661 0.035877883 -0.09144707 0.06643675 0.082202435 0.332348 -0.044256456
0.06925465 0.02192978 -0.28222442 -0.12360081 -0.05921535 0.025331948 0.018098691 0.07746507
-0.012911648 -0.1344913 -0.093706295 -0.047875807 0.23315674 0.037528932 -0.08286829 -0.0329779
-0.105400056 0.09201631 0.13749315 0.16453016 -0.03668614 0.15324083 -0.36116055 0.036613867
-0.17329466 0.08473949 0.0962396 -0.07441103 -0.096294485 0.11914873 0.2753744 -0.16841848
0.010734775 -0.0024279077 -0.0914968 -0.34112212 -0.17503041 -0.04622724 -0.22146243 0.08038548
-0.012232976 -0.06280729 -0.039355 -0.07467169 -0.20827466 0.011888863 -0.017800936 -0.061095927
0.17904334 -0.04661322 -0.034704875 -0.06023856 0.2152814 -0.17469652 -0.040552698 0.15742329
-0.1544002 -0.08514374 -0.15114544 0.15803576 -0.017615024 0.09219336 -0.24187881 0.047624014
0.061603997 0.09536288 0.013042684 0.13165466 0.1139949 0.0063280407 -0.13087802 0.07818362
-0.01778 -0.084798224 -0.08017383 0.08816638 -0.29812738 0.17114505 -0.14009883 -0.16252764
0.046540488 0.024614612 0.059402283 0.13776238 -0.0060624233 -0.01098654 -0.058131076 0.094210304
0.28784376 -0.0837362 -0.1304316 -0.1228729 0.12301542 -0.23809232 -0.20018297 0.14315867
0.3061792 0.018002924 -0.077922426 -0.06170362 0.19170107 -0.10710808 -0.031344626 -0.098346084
0.15488134 0.19912957 -0.057072733 -0.15369356 0.27427498 0.26219317 0.03757374 0.06308266
0.07905327 -0.05618686 -0.10219704 0.20860504 0.33238786 -0.03157519 0.024833443 0.058013037
0.037252933 0.04525914 0.07413463 0.027417257 -0.14127542 -0.072774515 -0.060360845 -0.12326523
0.06146439 -0.10719845 0.16548112 0.22425371 -0.21580307 0.22983868 0.003362488 -0.027899154
0.10854576 0.007300538 -0.01201344 0.12583077 -0.066849634 -0.064651445 0.15900584 0.28478384
0.11400572 -0.06572637 -0.11509137 -0.26016492 -0.13054544 -0.01331853 -0.08088362 0.07900549
0.04090745 -0.14456792 -0.08887335 -0.09779346 0.12188993 0.15826432 -0.09307961 0.094471194
0.046437632 0.03908643 -0.02147433 -0.01604498 0.08724866 -0.14638835 0.07090048 0.07707269

base.policy_head.bias f4 [128]
00000000: 6b07 203e 36ed 14be 4ea7 e83b 1f13 00be
00000010: e50c f2bc 16b4 97be 3423 a0be 9e63 efbc
00000020: b0c1 91bc 5b83 7cbe cb35 e9bb 78dd c23d
00000030: b898 cebc ee39 983c 2263 133e 455f e8bd
00000040: f152 573e 2ab7 0c3d 9bc5 bc3d 8627 cf3c
00000050: 6f75 0abd b84a bc3c bf0d 38be 1bce e7bd
00000060: 9a03 d33d 1a02 ea3c ea29 4c3d 0fe2 ad3d
00000070: fc45 193e a06f 633d a4fd 3c3d ebd3 013d
00000080: 2240 3abd 7fbb 103d 9cd4 55bd e779 1abc
00000090: 66b7 b23c 4087 b83c 41ff 093e d0ce b5be
000000a0: ca6f 2fbd bd51 533d 3e12 cc3d f492 133d
000000b0: 6f86 d03c 8293 34be a6fe a83d eef2 343d
000000c0: 1122 7c3d 5da1 81bd 5b25 963c b848 c2bd
000000d0: d1ef 30bd 8a93 a83d c834 58be bf17 a93c
000000e0: e88a 673e 2a3a 16be 1ecd 813c 9b57 93ba
000000f0: ba05 a5bb 35e6 32bd 8d14 83bc 58d3 11bf
00000100: daf6 3ebd d526 b6be e0b3 ca3c 2c3e 703d
00000110: 22a4 dd3c 7d50 a63d c2b3 323d 6278 153f
00000120: fc95 0abe 3a5c f23b 11ab f0bd e570 173d
00000130: ee0f d6bd f4aa 6bbc ccfb bb3c 9068 32bd
00000140: e90f 143e 7669 25be 045d a6bd 4b47 2dbe
00000150: 5f4c 10bd 50ad 853d bc03 323d e67c e53d
00000160: 1add cd3c 7677 1abe dd4f 49bd 0100 5dbd
00000170: 2882 84bd 60d7 41ba f053 1f3c 9035 d63d
00000180: fa46 c2be 17b9 9b3c 5f0e 583d 5cce 713e
00000190: 67f4 cdbd f09f 003d 8738 8d3d edbd a0bd
000001a0: ed51 05bf acab 2c3d 74c3 b03d bf23 2bbe
000001b0: ecb2 ba3d aeca e0bb 9d2c e83c f7a3 bfbd
000001c0: fccd f8bb 1c39 a73c de44 b9bc 9ad4 4c3d
000001d0: 7651 913c 43ce 713e 0120 133d a236 b6bb
000001e0: 4418 bebd fdaa c2bd 7228 0b3e d79c 183e
000001f0: db22 803d 8e28 1c3d bed7 d6bd 3dde f4bd
0.1562783 -0.14543614 0.0071000224 -0.12507294 -0.029547164 -0.29629582 -0.31276858 -0.029222306
-0.017792553 -0.24659483 -0.0071170083 0.09514898 -0.025219306 0.01858231 0.14393285 -0.11346296
0.21027733 0.034354366 0.09217378 0.0252874 -0.0338034 0.022984847 -0.17973994 -0.113186084
0.10303421 0.028565455 0.04984466 0.08490383 0.14968103 0.055526376 0.046140328 0.03169624
-0.045471318 0.03533506 -0.052204713 -0.009428478 0.021815967 0.02252543 0.13476278 -0.35509348
-0.04283122 0.051591624 0.09964417 0.036028817 0.025454728 -0.17634395 0.08251695 0.04417699
0.061555926 -0.06329606 0.01832836 -0.09486526 -0.043197457 0.08231266 -0.21113884 0.020641206
0.22611582 -0.14670625 0.015844878 -0.0011241318 -0.005036083 -0.043676574 -0.01600101 -0.5696311
-0.046622135 -0.355765 0.024743974 0.05865304 0.027055804 0.08120821 0.04362846 0.58386815
-0.13533777 0.007396248 -0.11751378 0.0369729 -0.10452257 -0.01438402 0.022947215 -0.04355675
0.14459194 -0.16153511 -0.0812321 -0.16921727 -0.035229083 0.06527197 0.043460593 0.11205463
0.025129844 -0.15084633 -0.04914843 -0.05395508 -0.06470138 -0.0007394459 0.009724602 0.10459435
-0.37944776 0.019009156 0.05274808 0.23613876 -0.10056382 0.03140253 0.06895547 -0.078487255
-0.52078134 0.042155907 0.0863103 -0.16712855 0.09116158 -0.006860099 0.028341586 -0.09357446
-0.0075929146 0.020412974 -0.022615846 0.05000744 0.017739039 0.23613839 0.035919193 -0.005560712
-0.09281972 -0.0950527 0.13589647 0.1490358 0.06256648 0.038124613 -0.10490368 -0.11956451

dist.linear.weight f4 [4, 128]
00000000: f615 1d3a 4fbe 45bc cbfe a9bb f822 48bc
00000010: 8437 2fbb ac45 17bc ded2 68bc 72bf f6ba
00000020: 3ff2 a13b febb b2bc f0b5 97bd 360e 9a3d
00000030: 6e44 88bc d658 afbc 603f 3ebc 4696 86bd
00000040: 76ab 373b 4d4f 4cbc 5fdd 003b e1ad c53a
00000050: 9a5f 0b3b 6178 de3b ff48 35bc db74 14bb
00000060: 3ecb 9b3c ad91 23bc ea21 42bb a28b df3c
00000070: c8f1 113c 6a07 feba 7f52 c23b add7 afb9
00000080: 14f3 efbd 0444 ba3a 1f14 fe3c 27ea 4abd
00000090: aea6 963b 4f3d 1ebc 5d4c 643a 4d02 a5bc
000000a0: 3a54 543a 43e2 5f3c 4b57 183b c98d 423d
000000b0: 61aa 59bc b583 ba3c d7e5 e4bc 735d 843c
000000c0: 6ce6 b6ba 3e07 6eba 6324 7abb eaf5 3ebc
000000d0: c663 80bc f655 8a3b 9d28 81bc 0ae7 c7bb
000000e0: f446 993c ab51 6cbc f4af 9e3b e982 153c
000000f0: 3e90 bdbb 5e07 03ba 4962 f1bc a9da fdbc
00000100: e33d 25bc 1903 babc cbe7 40bb a805 5fbc
00000110: be19 4bba dbe1 f03c 7c71 233b 4744 8d3c
00000120: 2d71 82bc c26b ba3b 95c5 84bb 3777 35ba
00000130: 719c a93c a8b8 81bb 9bed d43d 49b1 263c
00000140: 72bf 1dbc 33ae 063c ab84 7cba 1b66 8abb
00000150: 51e6 c6bb 21f7 25bd ead4 a63b df96 73bc
00000160: 1ae1 483c 6539 853b d863 4ebb 4201 693b
00000170: 2232 cf39 55d9 f1bb 5730 a6bd 3561 953d
00000180: bd3a 08bc c810 9aba 15fe 85bc 26d3 ab3c
00000190: 774e f1bb 63db ebbc 4448 c2bb 21c8 7d3d
000001a0: d219 c2bc ebe7 513c 511a b03b 346c 1b3c
000001b0: 706f 173d 4087 a43c d616 4ebd 1168 c5bb
000001c0: 3159 513c 254e 383c 0255 03bc 0be2 243c
000001d0: 1a84 073c 3cdc a73b 0ca9 08ba dcce fb3b
000001e0: 327b b1bb 22bc 7aba 8632 0bbb b1f1 783b
000001f0: f55b 85bb 99f8 083b d466 3abc a28e aebc
00000200: 6bbf babe 4347 ac3e 2a6d 6b3d fe64 593e
00000210: 9c53 d0bc 11c8 a63e cb5f ce3e 8248 8a3c
00000220: 4c53 d1bc 9982 5c3e 2ce6 2bbe d804 14bf
00000230: c051 a4bd 2855 923d 7eee 08bf 6cd1 743e
00000240: e865 34be da10 e73d 8458 83ba 9741 c6bd
00000250: 96fa 383e 9811 d1bd c0f8 183e 81d6 2e3e
00000260: 7d36 7ebe 09f3 b6bd d13b 813d e899 34be
00000270: 3fe6 26be 88f9 99bd 406f a6bc fe34 2a3c
00000280: 99ac ae3d 5e91 d0bc 5071 723d 5514 263f
00000290: 7ed5 ef3d 7fe2 463d 38ab ba3c 4094 e53e
000002a0: 3fa4 943d 9cb4 683d cbe7 22be 383f d13d
000002b0: c4bb f8bc bec4 a13e baef 083e 1e35 4abb
000002c0: fbe9 a6bd f2d0 103e 335c 783c f43d 943d
000002d0: 507e a53d 7b53 aebd d39e c03e 69b3 3c3e
000002e0: 79ed 42be 4120 823e a80b 7cbc c4ef 66bb
000002f0: 9c5a 97bd b0af 13bd bd62 b93e 79a1 a23f
00000300: 26af f03d 2932 2d3f 76cb 443e cbcc 01be
00000310: 50a9 36be ec49 39bd 5bcf 23be 7fd5 6fbf
00000320: 1329 253e 12f6 b4bc d2b1 49bc 59bb 8d3d
00000330: 89f3 a13d aba2 e9bc 1bfe a43d e6ed 2d3e
00000340: 5850 1dbe cd09 4f3e 7efa a3bd 81dc 4a3e
00000350: 7724 843e d88c 643e f743 37bd 5d4a 56bd
00000360: 1c02 dbbd ee1f 053e 1a0e 0e3e c159 c5bc
00000370: 22ea 1c3e 45ed d63d fd3c 8fbe 5868 a7be
00000380: 9944 063f 784e 3bbd 0880 053e 1196 1dbe
00000390: c55f 6b3d 53d0 3c3e b5fc 453d 2277 6d3e
000003a0: 5e84 893f 842a b7bc 948d 11be d74d e83c
000003b0: cb6b 67be 7283 d7be e972 f03d 6f56 423c
000003c0: 3483 7c3a 920a 9fbc f264 0bbe c988 5abd
000003d0: c8fc e2bc 3f21 c2be a806 3e3c e1da c1be
000003e0: 0e35 dd3d 2fc2 873e 075a 32be a5d0 48be
000003f0: 2487 55bd c6d4 36bc c126 9b3e 6475 ea3d
0.0005992347 -0.012069299 -0.0051878444 -0.012215368 -0.002673597 -0.00923292 -0.014210431 -0.0018825366
0.004942208 -0.021818157 -0.07407749 0.07522242 -0.016634192 -0.021404665 -0.011611789 -0.06571631
0.0028025783 -0.012470079 0.0019663197 0.0015081727 0.00212667 0.0067892526 -0.011064767 -0.002265266
0.019017812 -0.009983462 -0.0029622265 0.027288262 0.008907743 -0.0019380872 0.0059302445 -0.00033539292
-0.11716285 0.0014210944 0.031015454 -0.04953971 0.0045975065 -0.009658172 0.0008708889 -0.020142699
0.0008099709 0.013664785 0.002324539 0.047498498 -0.01328525 0.022767881 -0.027941627 0.016157841
-0.0013954169 -0.00090800587 -0.003816866 -0.01165531 -0.015672576 0.004221673 -0.015766436 -0.00610054
0.01871059 -0.014423768 0.0048427526 0.00912545 -0.0057850173 -0.0004998351 -0.029465811 -0.030988054
-0.010085556 -0.022706555 -0.0029435034 -0.013612188 -0.00077476713 0.029404571 0.0024939468 0.017244471
-0.015923107 0.0056891153 -0.004051874 -0.00069223664 0.02070448 -0.0039587803 0.10396882 0.010174104
-0.009628164 0.008220243 -0.0009632806 -0.0042235977 -0.0060699363 -0.040518884 0.0050912993 -0.014867513
0.0122607 0.00406568 -0.0031492617 0.0035553728 0.0003951947 -0.0073806443 -0.08114689 0.072939314
-0.008314786 -0.0011754269 -0.016356507 0.020974707 -0.00736409 -0.028791135 -0.005929025 0.061958436
-0.023693953 0.012811641 0.005374231 0.009486247 0.03697151 0.020084023 -0.050314747 -0.0060243686
0.012777613 0.0112491 -0.008015873 0.0100636585 0.008271242 0.0051226895 -0.0005213178 0.0076845717
-0.0054162974 -0.0009564777 -0.002123983 0.0037985856 -0.0040698 0.002090013 -0.011377055 -0.021308247
-0.36474165 0.33648118 0.057477154 0.21229932 -0.025430493 0.32574514 0.4030746 0.016880278
-0.025552414 0.21534194 -0.16787022 -0.5781989 -0.08023405 0.071451485 -0.5348891 0.23908013
-0.17616999 0.11282511 -0.0010020887 -0.09680479 0.18064341 -0.10208434 0.1493864 0.17074014
-0.24825473 -0.08933074 0.06310237 -0.17636836 -0.1629877 -0.075182974 -0.02031672 0.010388611
0.08529014 -0.025459941 0.059190094 0.64874774 0.11710642 0.048555847 0.022786722 0.44839668
0.0725789 0.056812868 -0.15908735 0.10217136 -0.030362971 0.31595415 0.13372698 -0.0030854414
-0.08150097 0.14142206 0.015158701 0.07238379 0.08080733 -0.085120164 0.37621173 0.18427815
-0.19035901 0.25415233 -0.015383638 -0.0035238126 -0.07390329 -0.03605622 0.36208144 1.2705528
0.11752157 0.67654663 0.19218239 -0.12675779 -0.17838025 -0.045236513 -0.15997069 -0.93685144
0.1612895 -0.022089992 -0.012310462 0.06920499 0.07907779 -0.028519949 0.08056279 0.16985282
-0.1536268 0.20218582 -0.08006762 0.19810678 0.2580907 0.22319353 -0.04474255 -0.052317012
-0.10693762 0.13000461 0.13872567 -0.02409065 0.1532369 0.10494474 -0.27976218 -0.32696795
0.5244842 -0.04572913 0.13037121 -0.15389277 0.05746438 0.18438844 0.048336703 0.23189977
1.074352 -0.02235914 -0.14214164 0.02835743 -0.22599714 -0.42092472 0.117406674 0.011861428
0.0009632588 -0.01941422 -0.13612726 -0.053353105 -0.027708426 -0.3791599 0.011598267 -0.37862304
0.10801135 0.26515338 -0.17417155 -0.19610842 -0.052130833 -0.011159128 0.30303004 0.11448172

dist.linear.bias f4 [4]
00000000: e688 4e3d 753d a5bf 7714 91bd b86e cc3d
0.050423525 -1.290938 -0.070839815 0.099820554
